Model/adam_ajusted_net.pth (torch, 232702 bytes, 21 tensors)

conv1_1.weight f4 [32, 1, 3]
0	0xbf41a142	-0.75636685
1	0x3fc21576	1.5162799
2	0xbe9a6a87	-0.301594
3	0xbe2cbb9a	-0.1686844
4	0xbfd39e78	-1.6532736
5	0x3ffc8c9c	1.973041
6	0xbf93ae74	-1.1537614
7	0x3fdec674	1.7404313
8	0xbf6e03e9	-0.92974716
9	0x3fa78cb6	1.3089817
10	0xbfab2e5a	-1.337352
11	0xbf7ef6de	-0.9959544
12	0x3e7de524	0.24794441
13	0xbc69a400	-0.014260292
14	0x3e952a98	0.2913406
15	0xbef67063	-0.4813262
16	0xbfbd5d08	-1.4794016
17	0x4005cfc1	2.0908053
18	0xc005cba8	-2.0905552
19	0x3ff59a05	1.9187628
20	0xbf9803b7	-1.1876134
21	0x3fb450ab	1.4087118
22	0xc025a1de	-2.5880046
23	0x3eae3278	0.3402288
24	0x405cefe4	3.4521418
25	0xbf3f537f	-0.7473678
26	0xbf05b7e9	-0.5223375
27	0xbf124f7e	-0.57152545
28	0x3f803bd8	1.0018263
29	0xbe272877	-0.1632403
30	0xbebabb6f	-0.36471125
31	0x3f59e7d2	0.85119355
32	0x3dc69eb2	0.096982375
33	0x3f084e3a	0.53244364
34	0xbf32ff87	-0.69921154
35	0x3ebe9981	0.3722649
36	0xbc490e04	-0.012271408
37	0x3fb95816	1.4480007
38	0xbf783110	-0.96949863
39	0x3f1e9272	0.6194221
40	0x3eb97beb	0.36227354
41	0xbf4efc79	-0.8085399
42	0xbf4b74df	-0.79475206
43	0xbf8b693b	-1.0891489
44	0x3faf4eea	1.3695958
45	0x3f7d4c5c	0.9894464
46	0xbf369962	-0.71327794
47	0x3cec0a16	0.028813403
48	0xbfc3a666	-1.5285156
49	0x3fe39f36	1.7782962
50	0xbd7fd441	-0.06245828
51	0xc007ab5e	-2.1198344
52	0x3fd6516c	1.6743598
53	0xbf65349b	-0.89533395
54	0x3f978fbd	1.184074
55	0xbf3b1e5a	-0.7309319
56	0xbec57ba6	-0.385709
57	0x3d2751cb	0.04084949
58	0x3e73c9a3	0.23807387
59	0x3ef6c796	0.48199147
60	0x3e03a932	0.12857512
61	0xbf897a83	-1.0740513
62	0xbdc482e6	-0.095952794
63	0xbe689286	-0.22712144
64	0x402bd989	2.6851523
65	0xbf163728	-0.5867791
66	0x3fe7a86a	1.8098271
67	0xbee643cd	-0.44973603
68	0x3fe5c2c7	1.7950066
69	0x3e1eb7e6	0.15499839
70	0xc026f904	-2.6089487
71	0x3fd8fcb8	1.6952124
72	0xbf4be7ed	-0.79650766
73	0xbe807b04	-0.25093853
74	0x3f85639b	1.0421022
75	0x3e695ba5	0.22788866
76	0xbfbb3cf9	-1.4627982
77	0xbe1670ab	-0.14691417
78	0x3f3b4f41	0.73167807
79	0xbf47854f	-0.7793779
80	0xbe251366	-0.16120681
81	0xbf299178	-0.6623759
82	0x3c4ad18c	0.012379061
83	0x3f8034f5	1.0016161
84	0x3e5f2f38	0.21795356
85	0x3e9ca017	0.3059089
86	0xbfe85ee7	-1.8153962
87	0xbd994a1a	-0.07484837
88	0xbcc9b407	-0.024621977
89	0xbfa73c87	-1.3065346
90	0x408a2c37	4.3178973
91	0xbf7c1705	-0.98472625
92	0x3e3c470d	0.18386479
93	0x3f499113	0.7873699
94	0x3d9d6b16	0.07686441
95	0x3bff0d4d	0.007783568

conv1_1.bias f4 [32]
0	0x3f3eb9cc	0.74502254
1	0x3eab962e	0.33513016
2	0x3ea63ca2	0.32468134
3	0x3deef246	0.11667304
4	0xbe9e9ef9	-0.30980662
5	0x3eb047cb	0.34429774
6	0xbe38a5c5	-0.18031986
7	0x3e7175fb	0.23580162
8	0x3ef0e965	0.47053066
9	0x3e7eed2b	0.2489516
10	0x3f082859	0.53186566
11	0x3e189b60	0.14903021
12	0x3f21c2c5	0.6318782
13	0x3f36949c	0.7132051
14	0xbcb8e4fa	-0.022570122
15	0x3e83a9cd	0.25715485
16	0x3f883441	1.0640947
17	0xbe207717	-0.15670429
18	0x3f1b8dab	0.60763043
19	0xbe74c03a	-0.23901454
20	0xbee714aa	-0.45132953
21	0x3f188aa5	0.59586555
22	0xbe9c7f00	-0.30565643
23	0x3ef4751c	0.47745597
24	0xbb98bdbf	-0.0046612914
25	0xbf194938	-0.5987735
26	0xbe6a8e52	-0.22905853
27	0x3eacd447	0.33755705
28	0xbec9955c	-0.39371765
29	0xbf2ce9e1	-0.6754437
30	0x3e2aa5a1	0.16664745
31	0x3f50fce0	0.81635857

conv1_2.weight f4 [64, 32, 3]
0	0x3c932068	0.017959788
1	0x3c50cfd8	0.012744866
2	0xbdbd3a47	-0.09239631
3	0xbdc5f7b2	-0.09666385
4	0x3cbc3c98	0.022978112
5	0x3d875f80	0.06610012
6	0x3d73d250	0.05952674
7	0xbd9fb042	-0.077972904
8	0x3bb62bf0	0.005559437
9	0x3db8813c	0.090090245
10	0x3d02560c	0.031820342
11	0xbc541540	-0.0129445195
12	0xbc5680a0	-0.01309219
13	0x3cb1e9a4	0.021717854
14	0xbdcbc290	-0.09949219
15	0x3d8d6f58	0.06906003
16	0x3d15b87c	0.03655289
17	0xbd3c39d1	-0.045953576
18	0xbd9acf10	-0.07559025
19	0x3d44c248	0.048036844
20	0xbd928854	-0.07154909
21	0xbd4a8ed8	-0.049452633
22	0xbd99ceb2	-0.07510127
23	0x3c179918	0.009252809
24	0xbd8b7bc0	-0.06810713
25	0x3c76e3a0	0.0150689185
26	0xbc2a5d00	-0.0103981495
27	0x3d81640e	0.06317912
28	0x3d7f879c	0.062385187
29	0x3cafd62c	0.02146443
30	0xbdb6b3e9	-0.08921034
31	0xbd23d1db	-0.039995056
32	0x3c5cf1b0	0.013485357
33	0x3d91b2a2	0.0711415
34	0x3cb1fa18	0.0217257
35	0xbcae0e30	-0.021247
36	0x3c2f0220	0.010681659
37	0xbd1e0e68	-0.038587958
38	0x3d552b08	0.05204299
39	0x3c8d3ab8	0.017239913
40	0xbd795dd7	-0.06088051
41	0xbdcb7c1c	-0.09935781
42	0x3d743a0c	0.05962567
43	0xbd86afa6	-0.06576471
44	0x3dbabb16	0.09117715
45	0xbd983bd4	-0.07433286
46	0xbd64934d	-0.05580454
47	0x3bd9ebc0	0.006650418
48	0xbd8c6cc2	-0.068566814
49	0xbd78b48b	-0.060719054
50	0x3d187a20	0.037225842
51	0x3b135e40	0.0022486597
52	0x3c927dec	0.01788231
53	0xbd1004da	-0.035160877
54	0xbdcbac2a	-0.09944947
55	0xbcfec924	-0.03110177
56	0xbb9c4f60	-0.0047702044
57	0xbd8a66a6	-0.0675786
58	0x3cc07058	0.02349107
59	0x3d75b528	0.059987217
60	0x3d3a8508	0.045537025
61	0xbd71324b	-0.058885854
62	0xbd493de6	-0.049131297
63	0x3cdbdf70	0.026839942
64	0xbd2fe2fb	-0.042941075
65	0x3c3bc2b0	0.011459991
66	0xba990640	-0.0011674836
67	0x3d151498	0.036396593
68	0x3dbf359c	0.09336397
69	0xbdbdff33	-0.09277191
70	0xbd51d0a5	-0.05122437
71	0xbca396cc	-0.019969366
72	0xbd9684fc	-0.073495835
73	0xbd7c91f9	-0.061662648
74	0xbd9e5e76	-0.07732861
75	0xbd1007a8	-0.03516355
76	0xbc88d8b4	-0.016704895
77	0x3d616348	0.055026323
78	0x3dc28eec	0.094999164
79	0x3dca55bc	0.09879634
80	0xbba20290	-0.004944153
81	0xbdb3c63f	-0.08778047
82	0x3da4c8d0	0.080461144
83	0xbd284e0b	-0.041090053
84	0xbd8895cc	-0.066691965
85	0x3cd4b538	0.025965318
86	0x3dc650f8	0.09683412
87	0x3d21db80	0.039515972
88	0x3db0dc2c	0.086357445
89	0x3c532b88	0.012888797
90	0xbcdee21c	-0.027207427
91	0x3db38150	0.08764899
92	0x3cec2920	0.028828204
93	0x3cdaba80	0.026700258
94	0xbcde4e68	-0.027136996
95	0x3d139b00	0.03603649
96	0x3ec8becb	0.39208063
97	0xbf0d55b2	-0.55208886
98	0x3f17ff37	0.593738
99	0xbe5d455a	-0.21608487
100	0x3eb7cba8	0.35897565
101	0xbe4b8d3f	-0.198781
102	0x3e8c87d9	0.27447394
103	0xbf329628	-0.6976037
104	0x3ed32c0d	0.41244546
105	0x3d9bb8ee	0.07603632
106	0xb9c0a0ae	-0.0003674081
107	0xbea252a4	-0.31703675
108	0xbd18f030	-0.037338436
109	0x3da97760	0.08274722
110	0xbdb88396	-0.09009473
111	0xbe722b5e	-0.23649356
112	0x3eccda48	0.40010285
113	0xbe076edb	-0.13225882
114	0x3e8d4779	0.27593592
115	0xbeebbb86	-0.46041507
116	0x3eb038e0	0.34418392
117	0xbe051b67	-0.12998734
118	0x3ea01e10	0.31272936
119	0xbf28c5d6	-0.65926874
120	0x3d9c951f	0.0764563
121	0xbfc66167	-1.5498475
122	0xbf046362	-0.51714146
123	0x3fa82f19	1.3139373
124	0x40160395	2.3439686
125	0x3f7e2448	0.9927411
126	0x3fa7b8a6	1.3103225
127	0x3fa2e6b9	1.2726661
128	0x3f94d9c5	1.1628958
129	0x3f19e4cd	0.6011475
130	0x3f325789	0.6966482
131	0x3e47742b	0.19477908
132	0x3f0c6647	0.5484356
133	0xbf86c439	-1.0528632
134	0x3f04e482	0.51911175
135	0x3e6c4e7b	0.23076813
136	0xbedeb97b	-0.43500885
137	0x3e3e3832	0.18576124
138	0xbe0f0824	-0.13967949
139	0x3e854024	0.26025498
140	0xbdd9d664	-0.10636595
141	0x3edf79e1	0.43647674
142	0x3f98b5b2	1.1930449
143	0xbe005887	-0.1253377
144	0x3e83cc36	0.25741738
145	0xbe812c3d	-0.25229064
146	0x3f05dd5f	0.5229091
147	0x3e708164	0.23486859
148	0xbee6d295	-0.45082536
149	0x3eb516f1	0.35369065
150	0x3d649b4c	0.055812165
151	0x3df97354	0.121802
152	0xbecf933e	-0.40542024
153	0x3d86266a	0.06550296
154	0xbd7538a5	-0.059868474
155	0xbcf60127	-0.030029846
156	0xbdb150d9	-0.086579986
157	0x3e259a22	0.16172078
158	0xbe9e2e42	-0.30894667
159	0xbf825747	-1.0182885
160	0xbf165e91	-0.58738047
161	0xbe6f9f5f	-0.23400639
162	0xbc8678c5	-0.01641501
163	0xc06b0e35	-3.6727421
164	0xbf12238e	-0.570855
165	0xbe6ab0ce	-0.22919008
166	0x3ed9210e	0.4240803
167	0xbefedae6	-0.4977638
168	0x406387bf	3.5551603
169	0x3efc658e	0.4929623
170	0x3fbcbf85	1.4745947
171	0xbdcad93b	-0.09904715
172	0x3e45b2f2	0.19306543
173	0xbed685b6	-0.41898888
174	0x3edac83d	0.42730895
175	0x3f3b8d14	0.73262143
176	0xbf5ecaa4	-0.87027955
177	0x401efbd5	2.4841206
178	0x3f283c29	0.657168
179	0x3fc97150	1.5737705
180	0x3eb222c8	0.3479216
181	0xbedf3fb6	-0.43603295
182	0x3e1036e0	0.14083433
183	0x3e969490	0.2941022
184	0xbe4a3536	-0.19746861
185	0x3db693db	0.0891492
186	0x3e594a36	0.21219715
187	0xbfe5a87f	-1.7942046
188	0x3e0a492c	0.13504475
189	0x3f205cc0	0.62641525
190	0x3f39fa3c	0.7264745
191	0x409a95b4	4.8307743
192	0xbd662824	-0.056190625
193	0xbd2e4319	-0.042544458
194	0x3da11ff4	0.07867423
195	0xbcb6fc7d	-0.022337193
196	0xbd4543f0	-0.048160493
197	0x3d1f2ddb	0.03886209
198	0xbdafd11e	-0.08584808
199	0xbdcc24e2	-0.09967972
200	0xbdeb027b	-0.114750825
201	0x3d990e7a	0.07473464
202	0xbd164a8f	-0.0366922
203	0x3d8e0fe1	0.069366224
204	0x3d57b8b4	0.05266638
205	0xbd5708ca	-0.052498616
206	0xbdcb4297	-0.099248104
207	0xbd400229	-0.04687706
208	0xbd4f68fd	-0.050637234
209	0xba436357	-0.00074534625
210	0xbdc4b49d	-0.09604762
211	0x3d2f1df1	0.042753164
212	0x3c8311c8	0.01599969
213	0xbdd0d4fa	-0.10196872
214	0x3c8a15e1	0.016856136
215	0xbdc9601d	-0.09832785
216	0x3dc989a8	0.09840709
217	0xbd5bf508	-0.053700477
218	0x3d105978	0.035241574
219	0x3d418c94	0.047253206
220	0x3db02458	0.08600682
221	0x3c41b863	0.011823746
222	0xbdbaefa7	-0.09127741
223	0xbd8da8e5	-0.0691698
224	0x3c88e286	0.016709577
225	0xbdaf8f31	-0.085722335
226	0xbdad1b19	-0.08452434
227	0x3d92e76c	0.071730465
228	0xbc389348	-0.011265583
229	0xbce3a934	-0.027790643
230	0x3d517d2f	0.051144775
231	0xbd786238	-0.060640544
232	0x3d09fc6a	0.033687986
233	0xbdfd3404	-0.12363437
234	0xbdcd1e1f	-0.10015511
235	0xbd980bbc	-0.07424113
236	0x3d74a840	0.05973077
237	0xbdb14f65	-0.086577214
238	0x3d811dc8	0.063045084
239	0xbd71f35e	-0.059069984
240	0x3d866f13	0.065641545
241	0x3d769b3f	0.060206648
242	0x3cb4dfa2	0.022079293
243	0x3d823f5a	0.063597396
244	0xbc84fb7f	-0.016233204
245	0xbc0fe9a6	-0.0087837335
246	0xbdde0f43	-0.10842755
247	0xbdcf2966	-0.10115318
248	0xbd528797	-0.05139884
249	0xbdab4c00	-0.08364105
250	0xbdb9feca	-0.090818
251	0x3d2c36d0	0.04204446
252	0x3d26d598	0.040731043
253	0xbd8285ec	-0.063732
254	0xbd045c80	-0.032314777
255	0x3d015e48	0.031584054

conv1_2.bias f4 [64]
0	0xbd8c72ff	-0.06857871
1	0x3d9b547c	0.075844735
2	0xbd42d478	-0.047565907
3	0xbea1dace	-0.31612247
4	0xbdd22493	-0.10260882
5	0x3d38a7a7	0.04508176
6	0xbe0c7286	-0.13715562
7	0x3e664fae	0.22491333
8	0xbf0a9ea8	-0.5414834
9	0xbb007339	-0.0019599928
10	0x3d9c95cb	0.07645758
11	0x3ea442cf	0.3208222
12	0x3e937cdc	0.28806198
13	0x3d04093f	0.03223538
14	0x3e8131fa	0.25233442
15	0x3da61bed	0.08110795
16	0x3ead309a	0.33826143
17	0xbdc15219	-0.09439487
18	0x3e8bdf7b	0.2731894
19	0x3e198c77	0.1499499
20	0x3e0af8ab	0.13571422
21	0x3e7ac3b6	0.2448872
22	0x3e3efa50	0.18650174
23	0x3e50dcd1	0.20396735
24	0x3e3d4bfd	0.18486018
25	0x3e58c848	0.21170151
26	0x3e72a60c	0.23696154
27	0x3e9d068f	0.30669066
28	0x3edd13f1	0.43179277
29	0x3c496442	0.01229197
30	0x3d172206	0.03689768
31	0x3ebdeaa2	0.37093073
32	0xbe6d4d17	-0.23173939
33	0x3e3df444	0.18550211
34	0x3d3ed884	0.046593204
35	0x3e2e2d75	0.17009528
36	0x3d3073d1	0.0430792
37	0x3e6d4114	0.23169357
38	0x3de3ceb4	0.1112341
39	0x3d9f1a6c	0.077687114
40	0x3d958970	0.07301605
41	0x3e26d425	0.16291864
42	0x3e5fed1e	0.21867797
43	0xbacc4979	-0.0015585861
44	0x3d70fde3	0.058835875
45	0xbc81d742	-0.015849713
46	0x3e942d77	0.28940937
47	0x3e9897a9	0.29803208
48	0x3dd02418	0.10163134
49	0xbdf7f956	-0.12108104
50	0x3e6d6a98	0.23185194
51	0xbe02abaa	-0.12760797
52	0x3d9e6618	0.077343166
53	0x3ba8a5e8	0.0051467307
54	0xbdd619ef	-0.10454165
55	0x3cc81152	0.024422321
56	0xbd7e5a8a	-0.062098064
57	0x3e2e335f	0.17011784
58	0x3cf6a571	0.030108185
59	0xbd65677c	-0.056006894
60	0x3e6d8c51	0.23198058
61	0xbee57b69	-0.44820717
62	0x3e9507d4	0.29107535
63	0x3e0438e9	0.12912335

conv2_1.weight f4 [32, 1, 3]
0	0xbd8f3548	-0.069925845
1	0x3d8a5a64	0.06755522
2	0x3f975a42	1.182442
3	0xbbd06da4	-0.0063607264
4	0x3e5a5ab9	0.2132367
5	0x3f88dce7	1.0692414
6	0x3e51e176	0.20496163
7	0xbfb9c1b9	-1.4512244
8	0xbfbe13f6	-1.4849842
9	0xbcc1eda1	-0.02367288
10	0x3dcf7fea	0.101318195
11	0x3cc68447	0.024232997
12	0x3eab4388	0.3344996
13	0xbcbec72a	-0.023288328
14	0xbf4b7d4c	-0.7948806
15	0xbd1c3e3d	-0.038145293
16	0x3d6da884	0.058022037
17	0x3f844220	1.033268
18	0xbc7ea6cf	-0.0155427
19	0xbbd81a6d	-0.006594947
20	0x3f6bbcbf	0.9208488
21	0x3e80159b	0.25016484
22	0x3dbe4529	0.09290535
23	0x3e59db4d	0.21275063
24	0xbba26315	-0.004955659
25	0xbdafa18a	-0.08575733
26	0xbd01d3b0	-0.03169602
27	0xbb16d76c	-0.0023016585
28	0x3ea28199	0.317395
29	0x3f73fd47	0.95308346
30	0xbd6a6a6a	-0.05723039
31	0xbdb8159c	-0.08988497
32	0xbdb4c389	-0.08826358
33	0x3c3a5512	0.011372821
34	0x3e988b9e	0.2979402
35	0x3f410d40	0.7541084
36	0xbb371d22	-0.0027940948
37	0x3eba2a8b	0.36360583
38	0x3f928a34	1.1448426
39	0x3dea0135	0.114260115
40	0x3ec5e2ed	0.38649693
41	0x3ced8483	0.02899385
42	0xbd16e400	-0.03683853
43	0x3e992461	0.29910567
44	0x3e2ab2a2	0.16669706
45	0xc0466309	-3.0997946
46	0x3e40af55	0.18816884
47	0xbf9a714b	-1.2065824
48	0x3e3ef5b3	0.18648414
49	0x3f0785ee	0.52938735
50	0x3e9ddb9c	0.3083161
51	0xbd34110b	-0.043961566
52	0x3ed229fc	0.41047657
53	0x3ee61d56	0.44944257
54	0x3e2fe9db	0.17179053
55	0xbf4bc232	-0.79593194
56	0xc0019825	-2.0249112
57	0xbc90d921	-0.01768166
58	0x3c0e394f	0.008680656
59	0x3f409f23	0.75242823
60	0x3cf2100c	0.029548667
61	0x3d572a91	0.05253083
62	0x3f21153b	0.6292302
63	0xbd12cfb9	-0.03584263
64	0xbe641298	-0.22272718
65	0x3c42530e	0.011860622
66	0xbc5cff2e	-0.013488574
67	0x3f1b1eae	0.6059369
68	0x3d65a758	0.056067795
69	0xc026124f	-2.5948675
70	0x3d5e4211	0.054262225
71	0xbfe4e5aa	-1.7882588
72	0xbc95ebd4	-0.018300928
73	0x3e83f339	0.25771502
74	0xbe7079a6	-0.23483905
75	0x3dee45bc	0.116343945
76	0xbbf027be	-0.0073289564
77	0xbeaeb2f1	-0.34120896
78	0xc039702b	-2.8974712
79	0x3e044413	0.12916593
80	0xc00ff4cf	-2.249317
81	0xbc08c749	-0.0083482945
82	0x3e2778cc	0.16354674
83	0x3f566c19	0.83758694
84	0xbabbe18e	-0.0014334188
85	0x3bc35fde	0.005962356
86	0x3f9da2c0	1.2315292
87	0xbc545677	-0.012960068
88	0x3eed025c	0.46290863
89	0x3e206592	0.15663746
90	0xbd595dc6	-0.053067945
91	0xbc3c121d	-0.011478928
92	0x3f82f49b	1.0230898
93	0x3dfedb36	0.12444155
94	0x3a9eec0e	0.0012124793
95	0x3f6bd94a	0.9212843

conv2_1.bias f4 [32]
0	0xbe6dc408	-0.23219311
1	0x3f467ac2	0.77531064
2	0x400046af	2.0043142
3	0x3eb29899	0.34882048
4	0xbe25dbf6	-0.1619719
5	0xbd120712	-0.035651274
6	0x3f4de434	0.80426335
7	0xbdb5c232	-0.088749304
8	0x3f05aca3	0.5221655
9	0x3f167807	0.587769
10	0x4025dfb8	2.5917797
11	0x3e0fb1a9	0.14032616
12	0x3f5ee868	0.87073374
13	0xbec42a56	-0.3831355
14	0x3f050acb	0.51969594
15	0x3f912114	1.133822
16	0xbf0e85db	-0.55673
17	0x3e4ce44e	0.20008966
18	0x4017120b	2.3604763
19	0x3f4c507b	0.79810303
20	0x3eb3ebcd	0.3514084
21	0x3e879a70	0.26485014
22	0x3cacea8a	0.02110793
23	0x4009e13f	2.154373
24	0xbee310e5	-0.44348827
25	0xbec43e7e	-0.38328928
26	0x3fe89655	1.8170878
27	0x3f38e46e	0.72223556
28	0x3eab86ed	0.33501378
29	0x3e3795f4	0.17928296
30	0x3eb3da8d	0.3512768
31	0x3ce11891	0.027477534

conv2_2.weight f4 [64, 32, 3]
0	0xbdd88787	-0.10572725
1	0x3ba6d8eb	0.0050917766
2	0xbe63bb7b	-0.22239487
3	0xbe1b57c2	-0.15170196
4	0x3cc846fe	0.024447914
5	0xbcd3a70d	-0.025836492
6	0xbe534ec0	-0.2063551
7	0xbe10344c	-0.1408245
8	0x3da17d1f	0.07885193
9	0x3d1e5179	0.038651917
10	0xbdf0620a	-0.117374495
11	0x3e489efa	0.19591895
12	0x3e1156e8	0.14193308
13	0x3c8c2ecd	0.01711216
14	0x3e30716b	0.17230766
15	0xbdbae743	-0.09126141
16	0xbd4f354f	-0.05058795
17	0xbe0eba2d	-0.13938208
18	0x3d8bc7dc	0.068252295
19	0x3e84262a	0.25810367
20	0x3bc923b7	0.0061382907
21	0xbd31a423	-0.043369424
22	0xbdd5033d	-0.10401008
23	0xbdfb10dd	-0.12259076
24	0x3da4d281	0.08047963
25	0x3df0a17a	0.11749549
26	0xbdaeda3e	-0.0853772
27	0xbdb7b048	-0.0896917
28	0xbdb3f2cc	-0.08786544
29	0x3d8db870	0.06919944
30	0xbea1b3d1	-0.31582502
31	0xbf66aaf0	-0.9010458
32	0xbfed8e6c	-1.8559089
33	0x3d935570	0.0719403
34	0xbdd935b8	-0.10605949
35	0x3e1b7c92	0.15184239
36	0x3c83753a	0.016047109
37	0x3d30d9b8	0.043176383
38	0x3b8cf446	0.0043015806
39	0xbd7d71b4	-0.061876014
40	0xbd97d4b3	-0.07413616
41	0x3cbf4554	0.023348488
42	0x3d2c0454	0.041996315
43	0xbdd85c72	-0.105645075
44	0x3d4513bf	0.048114534
45	0xbe1db580	-0.15401268
46	0xbf2c44ad	-0.6729229
47	0xbfab053f	-1.3360976
48	0xbc5347cc	-0.012895536
49	0xbd202426	-0.039096974
50	0xbda8eb93	-0.08248057
51	0xbd4b1791	-0.04958302
52	0xbbcfa253	-0.006336489
53	0x3dc00546	0.09376006
54	0xbedebcad	-0.43503323
55	0xbe9f3ded	-0.31101933
56	0xbda639a4	-0.08116463
57	0x3e1d0bc1	0.15336515
58	0x3d0cb806	0.034355186
59	0x3dbc99a3	0.092089914
60	0x3e57758d	0.21040936
61	0x3d4a8dca	0.049451627
62	0xbd58ec55	-0.05295976
63	0xbb766a81	-0.0037600102
64	0x3dbec8c4	0.09315637
65	0xbdf6d299	-0.12051887
66	0xbd1d2224	-0.038362637
67	0xbe55f96c	-0.20895928
68	0x3e854ec9	0.2603667
69	0xbdab6b07	-0.08370023
70	0xc01b9685	-2.431062
71	0xbf97b70a	-1.1852734
72	0x3b81d00c	0.0039615687
73	0xbeeee314	-0.46657622
74	0x3d1eb8cb	0.03875045
75	0x3de3e49e	0.1112759
76	0x3d9c02ca	0.076177195
77	0x3d5e7828	0.05431381
78	0xbd3a34d6	-0.045460545
79	0xbfbdb9c1	-1.4822313
80	0xbfcd68d2	-1.6047614
81	0x3c1568f8	0.009119265
82	0xbce4e926	-0.027943205
83	0x3d82013f	0.06347894
84	0xbdc81afb	-0.09770771
85	0x3d4e7fb0	0.05041474
86	0xbd7ce59c	-0.06174241
87	0x3c5aded9	0.013358795
88	0xbe5375e2	-0.20650437
89	0x3e89393d	0.26801482
90	0xbde38403	-0.111091636
91	0xbc72a4a0	-0.0148097575
92	0xbe26cbb6	-0.16288647
93	0xbb234b6c	-0.002491678
94	0xbe117b3d	-0.14207168
95	0xbd963ad9	-0.07335443
96	0xbc4cbd8e	-0.012496365
97	0x3dc1b309	0.09457976
98	0x3e1dce6a	0.15410772
99	0xbd887135	-0.066622175
100	0x3e9da76f	0.30791804
101	0x3ebf1851	0.3732324
102	0xbeb890c8	-0.3604796
103	0xbec316e2	-0.38103396
104	0x3e8e0ea3	0.27745542
105	0xbd0f2165	-0.034943957
106	0xbe3678be	-0.17819497
107	0x3ee36f51	0.44420865
108	0x3e2aab19	0.16666831
109	0xbdbc9b0f	-0.092092626
110	0xbeab7e90	-0.33494997
111	0xbd84283d	-0.06452987
112	0x3c65c0d1	0.014023022
113	0x3e66996c	0.22519463
114	0x3da7ac3d	0.08187149
115	0x3f0ae67e	0.54257953
116	0x3e4376c7	0.19088279
117	0x3c91bd67	0.01779051
118	0xbc58f833	-0.013242769
119	0xbced6c31	-0.028982254
120	0x3dfbfb32	0.12303771
121	0x3d96f11b	0.07370206
122	0xbe626514	-0.2210887
123	0x3c82ce99	0.015967654
124	0x3e5de2fa	0.21668616
125	0x3e8f447b	0.27981934
126	0xbf1a3781	-0.6024094
127	0xbf7dd701	-0.99156195
128	0xc02fc6f1	-2.7465174
129	0xbc802a16	-0.015645068
130	0x3e05862c	0.13039464
131	0x3ebff73d	0.37493315
132	0xbd492720	-0.049109578
133	0x3e0a2f29	0.13494553
134	0x3e5c6d5d	0.21526094
135	0x3cfbb429	0.030725555
136	0x3cd87576	0.026423197
137	0x3deb8b54	0.11501184
138	0xbda2930b	-0.079382025
139	0xbcd86bff	-0.026418684
140	0x3ef1ee96	0.4725234
141	0xbd9d2740	-0.07673502
142	0xbeb4433c	-0.35207546
143	0xbf99828b	-1.1992964
144	0xbcfdb9ee	-0.030972447
145	0xbd7b4148	-0.061341554
146	0x3dbab501	0.09116555
147	0x3b9ce925	0.004788535
148	0xbd43d492	-0.047810145
149	0x3eaf45bc	0.3423289
150	0xbee61266	-0.44935912
151	0xbec6a71f	-0.38799378
152	0x3d916325	0.070989884
153	0xbe225ef1	-0.1585653
154	0x3e575b91	0.21031024
155	0x3e0c0616	0.13674197
156	0x3cd7c877	0.026340706
157	0x3ead950a	0.3390277
158	0x3e39f612	0.18160275
159	0x3dcc3d49	0.09972627
160	0x3de2be7e	0.1107149
161	0xbe155ebe	-0.14586923
162	0xbd3e98f9	-0.046532605
163	0xbe4bb5cc	-0.19893569
164	0x3eecc2a9	0.46242264
165	0x3e04c7c2	0.12966827
166	0xbfaf4619	-1.3693267
167	0xbf791f55	-0.97313434
168	0xbdb5b4eb	-0.08872398
169	0xbd353808	-0.04424289
170	0x3ea128e1	0.314765
171	0x3dd2e5b9	0.10297722
172	0xbc3eb918	-0.0116408095
173	0xbd8810df	-0.06643843
174	0x3af13d8d	0.0018405184
175	0xbf108c8e	-0.5646447
176	0xbf9ceb9f	-1.2259406
177	0xbd4b0b46	-0.049571298
178	0x3ddb640d	0.107124425
179	0x3ea4679f	0.32110307
180	0x3dde935a	0.10867949
181	0x3bda5292	0.006662675
182	0x3d120014	0.035644606
183	0x3d404cd5	0.046948273
184	0xbe0644f0	-0.13112235
185	0x3ee73b3d	0.45162383
186	0xbe0a01a6	-0.13477191
187	0x3e0df760	0.13863897
188	0x3d880247	0.06641059
189	0x3e85f845	0.26165977
190	0x3c5f99de	0.013647525
191	0x3d9b4219	0.075809665
192	0x3dd5d736	0.10441439
193	0x3dbb872f	0.091566436
194	0xbf8bff31	-1.0937253
195	0x3d2ff754	0.04296048
196	0xbe94b7d6	-0.29046506
197	0xbf9b6fe2	-1.2143519
198	0x3e6531a8	0.22382224
199	0x3db64f3f	0.08901834
200	0x3e2b3667	0.16719972
201	0x3d658f49	0.05604485
202	0xbee8a6b4	-0.45439684
203	0xbf177f54	-0.5917866
204	0x3d87b902	0.06627084
205	0x3d171447	0.036884572
206	0xbf49819d	-0.787134
207	0x3c6e0470	0.014527425
208	0x3ddc34b9	0.107522435
209	0xbfa481bc	-1.2852092
210	0xbf02b3fd	-0.5105589
211	0xbea76e9e	-0.32701582
212	0xbfd63f3e	-1.673805
213	0x3cd9c590	0.026583463
214	0x3dc8a9ba	0.09797998
215	0xbf70006a	-0.9375063
216	0x3d937a8a	0.07201107
217	0x3cda3bcf	0.026639847
218	0xbf8d7da6	-1.105397
219	0x3e0737ae	0.13204834
220	0xbe799880	-0.2437458
221	0xbf8ca426	-1.0987594
222	0xbf567892	-0.83777726
223	0xbed74ff1	-0.42053178
224	0xbe45e62c	-0.19326085
225	0x3c268752	0.010164099
226	0xbe9476f1	-0.28996995
227	0xbf49629f	-0.7866611
228	0x3d265a61	0.040613536
229	0xbd33a9cf	-0.043863114
230	0xbf4afca4	-0.7929175
231	0x3dd4eadb	0.103963576
232	0x3c21ac4a	0.009867737
233	0xbf2cd3bb	-0.67510575
234	0x3e1cc5d0	0.15309834
235	0xbefa643d	-0.489046
236	0xbf05d092	-0.5227138
237	0x3deb4269	0.11487276
238	0xbde2f253	-0.11081376
239	0x3f84bff4	1.037108
240	0x3e04c765	0.12966688
241	0xbc66d27e	-0.014088271
242	0xbf52a5d0	-0.8228426
243	0x3da7e5e0	0.08198142
244	0xbe7eb22f	-0.24872659
245	0xbf1f008a	-0.621102
246	0x3e9cd1fa	0.3062895
247	0x3e3380ff	0.17529677
248	0x3f1e9837	0.6195101
249	0x3de9d1b9	0.114169545
250	0xbc079667	-0.008275605
251	0xbfbaaa54	-1.458323
252	0x3ca69a1f	0.020337163
253	0xbea48935	-0.3213593
254	0xbfcae0d2	-1.584986
255	0xbd252774	-0.04032083

conv2_2.bias f4 [64]
0	0x3e14a278	0.14515102
1	0xbd940091	-0.072266705
2	0x3a4fe1f8	0.00079300953
3	0x3cc62e83	0.0241921
4	0xbd9fdd4c	-0.07805881
5	0xbb20fb38	-0.00245638
6	0x3d8ceb1a	0.068807796
7	0x3d8a3819	0.06748981
8	0x3f69b799	0.9129577
9	0x3f15c096	0.5849699
10	0x3f307d23	0.68940943
11	0x3e4522fe	0.1925163
12	0x3f32169c	0.6956575
13	0x3d85ff5b	0.06542846
14	0xbc23fe3a	-0.010009343
15	0x3f5aaf12	0.85423386
16	0x3f3a6fdd	0.7282694
17	0x3e11b5c2	0.14229491
18	0x3e327314	0.17426711
19	0x3fb3f17c	1.405807
20	0x3dc8b4b2	0.0980009
21	0xbd9b26a4	-0.075757295
22	0x3e8d0e25	0.27549854
23	0xbd4ae03a	-0.049530245
24	0xbdf3c52f	-0.11902844
25	0x3d4e3c5f	0.050350543
26	0x3cd05415	0.025430718
27	0x3ee13594	0.4398619
28	0x3cbc4e22	0.022986475
29	0x3ed9bf7b	0.425289
30	0xbdd162c6	-0.10223918
31	0xbdefc80b	-0.11708077
32	0x3fed5ba1	1.8543588
33	0xbd8dfdf1	-0.06933201
34	0x3db55156	0.08853404
35	0x3e418197	0.18897091
36	0x3f0f8653	0.5606434
37	0x3b309cb9	0.0026948883
38	0x3e5f0ee0	0.21783018
39	0xbcb3fb0b	-0.021970293
40	0x3e15c935	0.14627536
41	0x3b47e380	0.003050059
42	0x3d6ea5cb	0.05826358
43	0x3e1ba1c4	0.15198427
44	0xbe0c85c3	-0.13722901
45	0x3f20bdba	0.627895
46	0xbcb1e7d0	-0.021716982
47	0x3f04fa37	0.519443
48	0x3e24bdb8	0.16087997
49	0xbdb892ca	-0.09012373
50	0xbcfa5f27	-0.03056295
51	0xbda1b7b8	-0.0789637
52	0xbd2f3f98	-0.042785257
53	0x3fb77ca4	1.4334912
54	0x3e743c18	0.23851049
55	0x3d371e1b	0.044706445
56	0x3e04994c	0.12949103
57	0x3c1f5ebb	0.009727175
58	0x3c58d52c	0.013234418
59	0x3d9a8803	0.075454734
60	0x3e5d4f41	0.21612264
61	0xbd1044b7	-0.03522178
62	0x3d192371	0.037387315
63	0x3f056f4c	0.5212295

conv3.weight f4 [32, 1, 1]
0	0xbe1fb578	-0.15596569
1	0x3ea33fd0	0.31884623
2	0xbebf37f0	-0.37347364
3	0xbd963080	-0.073334694
4	0xbf484c44	-0.7824137
5	0x3f1a7b50	0.6034441
6	0x3e46bbb0	0.19407535
7	0x3ed75f48	0.4206488
8	0x3e178468	0.14796603
9	0xbec52fe8	-0.38513112
10	0xbf2531aa	-0.64528906
11	0xbe8e56ec	-0.2780069
12	0x3f26950a	0.65071166
13	0x3ec0085c	0.37506378
14	0x3e74cc80	0.23906136
15	0xbf0bc648	-0.5459943
16	0x3f460aa8	0.7736001
17	0xbf5b896e	-0.85756576
18	0x3e971e3c	0.29515254
19	0x3f0225a2	0.50838673
20	0x3ebaf054	0.3651148
21	0x3efa0f40	0.4883976
22	0xbf5362e8	-0.82572794
23	0x3d2bec60	0.04197347
24	0xbcbb7b00	-0.0228858
25	0xbf53b68e	-0.8270043
26	0x3efe2aa8	0.4964192
27	0x3df91ef0	0.12164104
28	0x3f6eab36	0.9323
29	0xbf608674	-0.8770516
30	0xbf5456f4	-0.8294518
31	0xbf5d275e	-0.86388195

conv3.bias f4 [32]
0	0xbf4df344	-0.8044932
1	0xbf7cb462	-0.9871274
2	0xbf29c342	-0.66313565
3	0x3eef15dc	0.46696365
4	0xbf798b8e	-0.9747857
5	0xbf0c1552	-0.5472003
6	0xbf10c7aa	-0.56554663
7	0x3eea5ba4	0.4577304
8	0xbf49b27e	-0.7878798
9	0xbe4a2a40	-0.1974268
10	0x3f6a6a12	0.915681
11	0xbe0c6ae8	-0.13712656
12	0x3e051b18	0.12998617
13	0xbe8ab964	-0.27094567
14	0xbf4d2a18	-0.80142355
15	0x3d3792e0	0.044817805
16	0xbe9c4fd4	-0.30529654
17	0xbe80d23c	-0.25160396
18	0x3e36d530	0.17854762
19	0x3ea165d0	0.3152299
20	0x3e9ab858	0.30218768
21	0xbede5d58	-0.4343059
22	0xbddb6dc0	-0.107142925
23	0x3f01936c	0.5061557
24	0xbec9c694	-0.39409316
25	0x3ddc1bb0	0.107474685
26	0x3f1f2ab4	0.62174535
27	0xbf2e2938	-0.68031645
28	0xbc66f900	-0.014097452
29	0xbf2b5bbc	-0.6693685
30	0x3f5ec958	0.87025976
31	0xbd989be0	-0.07451606

fc_channel3.weight f4 [32, 1]
0	0xbf033684	-0.5125506
1	0x3d7f7fc2	0.0623777
2	0xbf4349e2	-0.7628461
3	0xbb42d0ca	-0.0029726499
4	0xbb06a6a3	-0.00205461
5	0xbe80d4d4	-0.25162375
6	0xbe5f0868	-0.2178055
7	0xbb2e1b91	-0.0026566724
8	0x3eb71cb3	0.35764083
9	0xbf1443fc	-0.57916236
10	0xbb66ed7e	-0.0035236771
11	0x3e26e9f6	0.16300187
12	0xba0a89c6	-0.0005284812
13	0xbb3be1e0	-0.0028668568
14	0x3dfc7c26	0.12328367
15	0xbf352e78	-0.7077403
16	0xbbd679b7	-0.0065452713
17	0xbf072a70	-0.5279913
18	0xbf131bcc	-0.5746429
19	0xbba1a121	-0.004932538
20	0xbe657520	-0.22407961
21	0xbf49f6c2	-0.7889215
22	0xbea13ba8	-0.31490827
23	0xbe790e10	-0.2432177
24	0xbf50ca3c	-0.81558585
25	0xbdd9c920	-0.10634065
26	0xbf376576	-0.7163919
27	0xbf7e048e	-0.992257
28	0xbae3c35a	-0.0017376945
29	0x3eab85f8	0.33500648
30	0xbabaa94b	-0.0014241127
31	0xbf42a4ea	-0.7603289

fc_channel3.bias f4 [32]
0	0x3f046bdc	0.5172708
1	0x3f21c4de	0.6319102
2	0xbe930178	-0.28712058
3	0xbee12fad	-0.43981686
4	0xbe811f19	-0.25219038
5	0x3f5d3560	0.8640957
6	0xbf0a95b2	-0.54134667
7	0xbf9ba4be	-1.215965
8	0x3dadd709	0.0848828
9	0xbec986a8	-0.39360547
10	0x3ece3097	0.40271446
11	0xbf0657e5	-0.52477866
12	0xbf797fe7	-0.9746079
13	0xbfbd5370	-1.4791088
14	0xbdcad5ec	-0.099040836
15	0xbd900790	-0.070326924
16	0xbe8f3f26	-0.27977866
17	0xbf043378	-0.51641035
18	0x3bf19c00	0.007373333
19	0xbf74aaba	-0.9557301
20	0xbea53b50	-0.32271814
21	0x3f399560	0.72493553
22	0xbf593fba	-0.84862864
23	0xb9814000	-0.0002465248
24	0xbe055788	-0.13021672
25	0x3f0934ec	0.5359638
26	0xbf6f9e1a	-0.9360062
27	0x3f70fff0	0.9414053
28	0xbf9fd9d9	-1.2488357
29	0x3ea7771e	0.32708067
30	0xbf47d05c	-0.78052306
31	0x3e8b0170	0.27149534

conv4_1.weight f4 [32, 1, 3]
0	0xbf16f1c4	-0.58962655
1	0x3f1e3e1a	0.6181351
2	0xbfd06e2e	-1.6283624
3	0x3ec28eb4	0.379995
4	0x3e69428f	0.22779296
5	0x3ea795bc	0.32731426
6	0x3ef75121	0.48304084
7	0xbc1e74a2	-0.009671362
8	0xbb43e646	-0.0029891892
9	0x3ee12621	0.43974403
10	0x3ecee013	0.4040533
11	0xbe018087	-0.12646686
12	0x3f1e7569	0.61897904
13	0xbf889a59	-1.0672103
14	0xbf29a82e	-0.66272247
15	0x3f095f3c	0.5366094
16	0x3eeeee9a	0.46666414
17	0xbfccd8f0	-1.6003704
18	0xbffdda38	-1.983222
19	0xbc2328df	-0.009958475
20	0x3f2195b9	0.63119084
21	0x3f1487db	0.580198
22	0x3ee8ca8c	0.4546703
23	0x3efde7cc	0.4959091
24	0x3c9d53b5	0.019204954
25	0xbf97fdbc	-1.1874309
26	0x3f40df05	0.753403
27	0xbfe8a807	-1.8176278
28	0xbfe8893b	-1.816688
29	0x3ce0a48d	0.027422214
30	0x3f01f34d	0.5076187
31	0x3eaee58b	0.34159502
32	0x3f52a9e3	0.82290477
33	0x3e85989d	0.26092997
34	0xbf824b29	-1.0179187
35	0x3d931511	0.071817525
36	0x3e3a6925	0.18204172
37	0xbf4e2bda	-0.8053566
38	0x3d1ef3c4	0.03880669
39	0xbeb5513d	-0.35413542
40	0x3dea39cb	0.114368044
41	0xbf4ad201	-0.7922669
42	0x3eeee8e0	0.46662045
43	0x3dc7181e	0.09721397
44	0xbf83e8d4	-1.0305429
45	0x3d3a2df3	0.045453977
46	0x3f485eda	0.7826973
47	0x3d473106	0.048630737
48	0x3e6139ee	0.21994755
49	0xbf3f32d0	-0.7468691
50	0xbf742214	-0.953645
51	0xbfd70784	-1.6799169
52	0xbfb64401	-1.4239503
53	0xbc89541c	-0.01676374
54	0xbf17ed16	-0.5934614
55	0x3f07ae25	0.530001
56	0xbfb66a8e	-1.4251268
57	0xbf8fe0af	-1.1240443
58	0x3f045701	0.5169526
59	0xbfa00ed5	-1.2504526
60	0xbf317dea	-0.69332755
61	0x3e253393	0.16132955
62	0xbed4d045	-0.41565147
63	0x3d9ebb32	0.077505484
64	0x3e82367f	0.25432202
65	0xbf41bfa3	-0.7568304
66	0x3e8dc437	0.27688763
67	0x3b99a3df	0.0046887244
68	0x3fa9e29f	1.3272284
69	0x3e240f5b	0.16021483
70	0xbf1cbaae	-0.6122235
71	0xbf21bdb6	-0.631801
72	0x3ebc8030	0.3681655
73	0x3db5bd7f	0.08874034
74	0xbf6ee738	-0.9332156
75	0x3f089efc	0.5336759
76	0x3d076875	0.033058602
77	0xbe9a6c76	-0.30160874
78	0x3e3fde2a	0.18737093
79	0x3ed46485	0.4148294
80	0xbfb7c62d	-1.4357353
81	0x3e5c33ce	0.21504137
82	0x3e07c601	0.13259126
83	0x3f5592c6	0.83427083
84	0x3e6925e4	0.2276836
85	0x3c064a12	0.008196371
86	0x3f9a2f78	1.2045736
87	0xbf7031f5	-0.9382623
88	0xbf5fe807	-0.8746342
89	0xbfde700e	-1.7377946
90	0xbde20e33	-0.110378645
91	0x3e88cf23	0.26720533
92	0x3facffb4	1.3515534
93	0xbf445f2e	-0.7670773
94	0x3eaec0c1	0.34131435
95	0xbf4b668c	-0.7945335

conv4_1.bias f4 [32]
0	0x3fbb854d	1.4650055
1	0x3e070ff9	0.13189687
2	0x3c0564f1	0.008141742
3	0x3e3457c5	0.17611606
4	0x3e87d79e	0.2653169
5	0xbe7aabce	-0.24479601
6	0xbe921d5e	-0.2853803
7	0x3e6463dc	0.22303718
8	0x3ea3e69d	0.3201188
9	0xbdb80365	-0.089850225
10	0x3e26fc26	0.16307124
11	0x3f8320ff	1.0244445
12	0x3f2df515	0.6795209
13	0x4008118d	2.1260712
14	0x3e18d263	0.14924006
15	0x3ec5151e	0.38492674
16	0x3fc4c9bd	1.5374066
17	0x3dfd240f	0.12360393
18	0x3fb34fd9	1.4008743
19	0x3f619826	0.88122785
20	0x3ec8aeb3	0.39195785
21	0x3f0ea8c6	0.5572628
22	0xbf96aae3	-1.17709
23	0x3fc9d148	1.5766993
24	0xbde1ca31	-0.11024893
25	0xbe68ed72	-0.22746828
26	0xbbfa4ee5	-0.0076387995
27	0xbe14321b	-0.14472239
28	0xbf5ee260	-0.8706417
29	0x3e44009c	0.19140857
30	0x3fd4a8f1	1.6614057
31	0x3f54e210	0.83157444

conv4_2.weight f4 [64, 32, 3]
0	0x3d734099	0.059387777
1	0xbed5649b	-0.41678318
2	0xbf12b44e	-0.57306373
3	0x3d8330c8	0.06405789
4	0x3e1e4c89	0.15458883
5	0x3e71a87a	0.23599425
6	0xbd788c84	-0.06068088
7	0x3ce857f1	0.028362246
8	0x3d98bb82	0.07457639
9	0x3e0a650e	0.13515112
10	0x3dbaa79f	0.091140024
11	0x3e843c94	0.25827467
12	0xbe34a66b	-0.17641608
13	0x3e664fd3	0.22491388
14	0x3e690c67	0.22758637
15	0x3e25343a	0.16133204
16	0xbd044eea	-0.03230182
17	0x3eca2ba1	0.3948641
18	0x3e709c93	0.23497228
19	0x3de59ef1	0.11211956
20	0x3f979810	1.1843281
21	0x3db0e26e	0.08636938
22	0x3e4c9183	0.19977383
23	0x3e9a7de2	0.30174166
24	0x3d8c978d	0.068648435
25	0xbe0a4086	-0.13501176
26	0xbf3d352a	-0.73909247
27	0x3f75de1b	0.9604203
28	0x3f33b7cc	0.70202327
29	0x3f8ea77d	1.1144863
30	0xbca16827	-0.019702984
31	0x3e6e779a	0.23287812
32	0x3df5c456	0.12000339
33	0xbb86b35c	-0.004110737
34	0x3ea73aad	0.32661954
35	0x3d80da72	0.06291665
36	0x3dc22d5f	0.0948131
37	0x3e5ecea3	0.21758513
38	0x3e317daf	0.173331
39	0xbfa4bae2	-1.2869532
40	0xbf5b9ea5	-0.8578895
41	0xbf2526ae	-0.64512146
42	0x3d577b5c	0.05260788
43	0xbc285816	-0.010274908
44	0x3e646090	0.2230246
45	0x3d8a891e	0.06764434
46	0x3dd1f034	0.10250893
47	0x3f089372	0.53349984
48	0xbeb42fe5	-0.3519279
49	0xbadbb83b	-0.0016763279
50	0x3ea19886	0.3156168
51	0x3f62b48e	0.88556755
52	0x3f4319ca	0.76211226
53	0x3f809503	1.0045475
54	0xbbc433bd	-0.005987613
55	0xbe805d5f	-0.25071236
56	0xbf2a35f3	-0.6648857
57	0xbd87fa1a	-0.066395
58	0xbe9ba8f5	-0.3040234
59	0xbef4e9d6	-0.47834653
60	0xbc30cf97	-0.010791681
61	0xbeae2c19	-0.3401802
62	0xbf1adf30	-0.6049681
63	0x3df881fe	0.12134169
64	0x3d61a915	0.05509289
65	0x3ed6b3ca	0.41934043
66	0x3dbe11c6	0.09280734
67	0x3e4134ba	0.1886777
68	0xbfd57b1a	-1.6678193
69	0xbecfb254	-0.4056574
70	0xbcba5862	-0.022747222
71	0x3eb39afb	0.35079178
72	0xbcb3ae56	-0.021933716
73	0x3dd1d1c6	0.10245089
74	0x3e6092ac	0.21930951
75	0x3d8e2aa1	0.069417246
76	0x3dad2174	0.08453646
77	0x3ea6a528	0.3254788
78	0x3e36b011	0.17840602
79	0xbd3e3062	-0.04643286
80	0x3ecd87fe	0.40142816
81	0x3e2eb989	0.17062964
82	0x3e6847d7	0.22683655
83	0xbe44c7e4	-0.19216877
84	0x3e683d54	0.22679645
85	0x3ed39e00	0.41331482
86	0xbfe801eb	-1.8125585
87	0xbd5a7881	-0.053337578
88	0x3eb8ace8	0.36069417
89	0x3f3081f3	0.68948287
90	0x3d192e20	0.037397504
91	0x3eac642c	0.33670175
92	0xbeb76cb1	-0.35825112
93	0xbde1c244	-0.11023381
94	0xbedb9799	-0.42889097
95	0xbf715e30	-0.94284344
96	0x3ea6d67b	0.3258551
97	0x3dd4ea7e	0.10396288
98	0x3ecdf1b9	0.40223482
99	0xbebc3bc6	-0.36764354
100	0x3e2370a3	0.15960936
101	0xbd669a77	-0.056299653
102	0xbf19a558	-0.6001792
103	0x3e2cc7b5	0.16873057
104	0xbd128455	-0.035770733
105	0xbea061c4	-0.3132459
106	0xbdacdeff	-0.08440971
107	0x3df94b1e	0.121725306
108	0x3efabe38	0.4897325
109	0xbf59951b	-0.8499314
110	0xbd82086b	-0.06349262
111	0xbf2c3b87	-0.6727833
112	0xbdba7e37	-0.09106105
113	0x3d36f97c	0.04467152
114	0x3f14ca3c	0.58121085
115	0x3ed6e24c	0.41969526
116	0x3ede24db	0.43387493
117	0xbebed5ff	-0.3727264
118	0x3e25b6d0	0.16183019
119	0x3bef84fb	0.0073095537
120	0x3bf9eba1	0.007626966
121	0x3f3bf8d9	0.73426586
122	0xbf29b38f	-0.6628961
123	0x3ee4f81f	0.4472055
124	0x3f7b1206	0.98074377
125	0xbf1b4c15	-0.60662967
126	0xbe8696a8	-0.26286817
127	0x3d6b9427	0.057514336
128	0xbd3cd73d	-0.046103705
129	0x3ec219e5	0.3791038
130	0x3e89a7d7	0.26885864
131	0x3e1f7bc1	0.15574552
132	0x3efee4c2	0.49783903
133	0x3e615a40	0.22007084
134	0x3e185772	0.14877108
135	0xbdaffc06	-0.085929915
136	0xbef904b7	-0.4863641
137	0x3b522c6d	0.0032069937
138	0xbef14122	-0.47120005
139	0xbf82fabd	-1.0232769
140	0x3d6470d7	0.055771675
141	0x3db15a3c	0.08659789
142	0xbd494444	-0.04913737
143	0x3eb6622f	0.35621783
144	0x3ea1a1dd	0.31568804
145	0x3e89fb97	0.2694976
146	0xbec21926	-0.37909812
147	0x3f005648	0.50131655
148	0x3f728bce	0.94744575
149	0xbf10f02f	-0.5661649
150	0x3e38284a	0.17984119
151	0x3cb4f135	0.022087673
152	0x3ea6882e	0.32525772
153	0x3e59cbf9	0.21269216
154	0x3dd87f01	0.10571099
155	0x3e91b6c2	0.28459746
156	0x3e39ba01	0.18137361
157	0x3dc05a38	0.09392208
158	0x3bd7e7ab	0.0065888963
159	0xbcf09a53	-0.029370463
160	0xbd85af01	-0.0652752
161	0x3ea2bef2	0.31786305
162	0x3dafc69d	0.08582804
163	0x3eb6defc	0.35717
164	0xbd50c813	-0.050972056
165	0x3ef037ef	0.46917674
166	0x3ea25b17	0.3171012
167	0xbf26c5dc	-0.6514566
168	0xbf263432	-0.64923394
169	0xbf67161f	-0.9026813
170	0xbcf3d8f5	-0.02976654
171	0xbe9af7f9	-0.30267313
172	0xbeb0d38c	-0.34536397
173	0x3d9f7c2b	0.07787355
174	0xbf2cb617	-0.6746535
175	0xbac1749a	-0.0014759481
176	0x3e8ac475	0.2710301
177	0xbe382e7c	-0.17986482
178	0x3e59a8b0	0.21255755
179	0xbd62ed07	-0.05540183
180	0x3de4bc63	0.111687444
181	0x3ef46c8e	0.4773907
182	0xbb957441	-0.0045609777
183	0x3ed24013	0.4106451
184	0x3e9b9dcd	0.3039383
185	0xbf10dbdd	-0.56585485
186	0x3de0522c	0.10953173
187	0x3e82ef8b	0.25573382
188	0x3e9bf9b6	0.30463952
189	0x3ea5fcdb	0.32419476
190	0x3c811b78	0.015760168
191	0x3e0d3064	0.13787991
192	0xbc001ba3	-0.007819089
193	0xbecd4a45	-0.40095726
194	0xbf18ee28	-0.597384
195	0x3e084179	0.13306226
196	0x3e6b8f20	0.23003817
197	0x3e177060	0.14788961
198	0x3cbd71c6	0.02312554
199	0x3e3f6c8e	0.18693754
200	0x3e5f3b0c	0.21799868
201	0x3cacc8a1	0.021091761
202	0x3e4f78d6	0.20260939
203	0x3e96d422	0.2945872
204	0xbe623640	-0.22091007
205	0x3e9069ce	0.28205723
206	0x3efdcb0f	0.49568984
207	0x3d0cbf46	0.0343621
208	0x3e2bc425	0.16774042
209	0x3ea3233f	0.31862828
210	0x3ee33687	0.4437754
211	0xbf22fe05	-0.63668853
212	0x3fa73fa7	1.30663
213	0x3e508495	0.20363076
214	0x3e1d12bd	0.1533918
215	0x3e4073bc	0.18794149
216	0xbdb93664	-0.09043577
217	0x3dee3ab4	0.116322905
218	0xbf5fb5fc	-0.8738706
219	0x3f9b75c4	1.2145314
220	0x3eef07a3	0.46685514
221	0x3fb8d7cc	1.4440856
222	0x3e139f79	0.14416303
223	0x3e69b45d	0.2282271
224	0xbb85481e	-0.004067435
225	0xbdca0b38	-0.09865421
226	0x3e8cfddd	0.27537432
227	0x3ecf3d06	0.40476245
228	0xbe64791f	-0.22311829
229	0x3e8adab0	0.2711997
230	0x3ecc7dcd	0.39939728
231	0xbfaa873b	-1.3322519
232	0xbf7f950a	-0.9983679
233	0xbf871dae	-1.0555933
234	0xbced9c72	-0.029005263
235	0x3e04c5d9	0.12966098
236	0x3e960a9b	0.29304966
237	0x3e000a4c	0.12503928
238	0x3de04144	0.109499484
239	0x3ca4ad7c	0.020102255
240	0xbed2b3e1	-0.41152862
241	0x3e35705f	0.17718647
242	0x3f14edff	0.58175653
243	0x3fa0d51d	1.2565037
244	0x3ed36152	0.41285187
245	0x3fb16758	1.3859663
246	0xbd3d5da2	-0.046231873
247	0xbed706c8	-0.4199736
248	0xbf1c90d1	-0.6115847
249	0xbd90a744	-0.070631534
250	0xbec1b74b	-0.37835154
251	0xbeb4df4d	-0.35326615
252	0xbe6a1ddd	-0.22862954
253	0xbefd1420	-0.49429417
254	0xbeb71f76	-0.3576619
255	0x3c1e1e36	0.009650758

conv4_2.bias f4 [64]
0	0xbc866be9	-0.016408877
1	0x3df1ef07	0.11813169
2	0x3d7b3c59	0.06133685
3	0xbcacdb9b	-0.02110081
4	0x3e30a232	0.17249373
5	0x3e388514	0.18019515
6	0x3da89360	0.082312346
7	0xbc638c07	-0.013888366
8	0xbdbb2dd4	-0.091396004
9	0x3e275de6	0.16344413
10	0xbc8009e3	-0.015629714
11	0x3cb23c35	0.021757225
12	0x3dd9a69e	0.10627483
13	0xbdd72414	-0.10504928
14	0x3dc28ad5	0.09499136
15	0x3e5d63cf	0.21620105
16	0x3ce25f37	0.027633293
17	0x3e0d02c0	0.1377058
18	0x3d9bdc0b	0.07610329
19	0x3db4ef94	0.088347584
20	0x3d77efbc	0.060531363
21	0x3e833980	0.25629807
22	0x3dbf9840	0.09355211
23	0x3e9a88a2	0.30182368
24	0xbde2c47a	-0.11072631
25	0xbc0d7d97	-0.0086359
26	0x3de0b635	0.10972253
27	0x3f1cb6da	0.6121651
28	0x3d0776c0	0.033072233
29	0x3dbd8d94	0.092555195
30	0xbcfd715c	-0.030937843
31	0xbcec9e20	-0.028883994
32	0x3e385ba4	0.18003708
33	0x3ec45e8c	0.38353384
34	0x3e0edde0	0.13951826
35	0x3ea92b75	0.33040968
36	0xbdf673d4	-0.12033811
37	0x3ea91f5a	0.33031732
38	0xbd4d333e	-0.050097696
39	0x3e821c75	0.25412336
40	0x3d17d3a9	0.03706709
41	0x3ea07e42	0.31346327
42	0x3c8c8dfb	0.017157545
43	0x3e0fd52b	0.14046161
44	0x3d8ac393	0.06775584
45	0xbc1ce3b5	-0.009575774
46	0x3ecc735c	0.39931762
47	0x3e9a1fb3	0.3010231
48	0x3ce39c42	0.02778447
49	0x3e437f74	0.19091588
50	0x3ea915d6	0.33024472
51	0x3dd649e4	0.10463312
52	0xbda17d08	-0.07885176
53	0x3e842bc0	0.2581463
54	0x3d92a739	0.071608014
55	0xbc814c23	-0.015783375
56	0xbcdad6a1	-0.026713671
57	0x3e337a34	0.17527086
58	0x3e03f9a4	0.12888199
59	0x3dc98358	0.09839505
60	0xbd4983d7	-0.049197998
61	0x3d913631	0.07090414
62	0x3e8491f7	0.25892612
63	0xbd4ad9e7	-0.049524214

fc1.weight f4 [120, 224]
0	0xbd62ddac	-0.055387184
1	0xbd7eb697	-0.06218585
2	0x3d591e42	0.05300737
3	0x3d22bee2	0.03973282
4	0xbd807f49	-0.06274278
5	0xbc907ef2	-0.017638657
6	0x3d7d0fa2	0.061782487
7	0xbcc7341e	-0.024316844
8	0xbd1f1e4e	-0.03884726
9	0xbd325774	-0.043540433
10	0x3d597492	0.053089686
11	0xbc44add0	-0.012004331
12	0xbcd0d006	-0.025489818
13	0xbc1ea4b8	-0.009682827
14	0xbbe936a0	-0.0071171075
15	0x3cd76d9c	0.026297383
16	0x3d7126de	0.058874957
17	0x3d387086	0.045029186
18	0xbcc306a8	-0.023806885
19	0xbca73ff4	-0.020416237
20	0xbd37c093	-0.044861387
21	0x3d3d8534	0.04626961
22	0xbd4c65b8	-0.049901694
23	0x3aee35c0	0.0018173978
24	0xbcd01344	-0.025399812
25	0xbc873754	-0.016505875
26	0xbd2f008d	-0.042725135
27	0x3cd8b8f4	0.02645538
28	0x3d72216e	0.059113912
29	0xbcbbf804	-0.022945412
30	0x3cd58014	0.026062049
31	0xbc9bb428	-0.019006804
32	0xbd11a228	-0.035555035
33	0x3d2d77fc	0.042350754
34	0xbd22c346	-0.03973701
35	0x3d0b0360	0.033938766
36	0x3d80ffb9	0.06298775
37	0x3cff2510	0.031145602
38	0xbcf0fc4c	-0.02941718
39	0xbd397402	-0.04527665
40	0xbc24717c	-0.010036822
41	0x3c3ae8c8	0.011408038
42	0xbcb44282	-0.02200437
43	0x3d4ef8f4	0.05053039
44	0x3d2814dc	0.041035518
45	0xbc17557c	-0.00923669
46	0x3cda1f24	0.026626177
47	0xbd1e0158	-0.0385755
48	0x3d6a7466	0.057239912
49	0x3d41bb24	0.04729761
50	0xbc840362	-0.016114894
51	0xbce5801a	-0.028015185
52	0x3d0cbdec	0.03436081
53	0xbd0a03fa	-0.0336952
54	0xbccdb2fc	-0.02510976
55	0x3aa61cc0	0.0012673363
56	0x3d6f613e	0.058442347
57	0xbd174006	-0.036926292
58	0x3cd333cc	0.025781535
59	0xbb7ea7c0	-0.003885731
60	0xbbe905b8	-0.0071112774
61	0xbc23a230	-0.009987399
62	0xbadcd040	-0.0016846731
63	0x3d37de62	0.044889815
64	0xbc3e3354	-0.011608917
65	0xbd0635ed	-0.03276627
66	0xbc07cfa4	-0.0082892515
67	0xbcd412d8	-0.025887892
68	0xbcfe8288	-0.031068102
69	0x3cb13880	0.021633387
70	0x3d3dc468	0.046329886
71	0xbd86b431	-0.065773375
72	0xbd095d68	-0.033536345
73	0xbd3dfe14	-0.046384886
74	0xbc32d6fc	-0.010915514
75	0xbd83e415	-0.064399876
76	0xbd053e5e	-0.03253018
77	0xbd2cee6c	-0.042219564
78	0x3b0d4e20	0.0021561459
79	0xbd869cf5	-0.06572906
80	0x3c8b1658	0.016978428
81	0x3c55ac68	0.013041593
82	0x3cd58534	0.026064493
83	0xbd177772	-0.036979146
84	0x3d6fc482	0.058537014
85	0x3d865a43	0.06560185
86	0x3d03d56a	0.03218595
87	0xbcb3b3f6	-0.021936398
88	0x3d7ee1f2	0.062227197
89	0xbd1a0884	-0.037605777
90	0xbc813910	-0.01577428
91	0xbd5132d8	-0.05107388
92	0xbd626f28	-0.055281788
93	0xbd806079	-0.06268401
94	0x3b812990	0.003941722
95	0x3d6f4822	0.0584184
96	0xbd5ebe64	-0.05438079
97	0xbd3c7a84	-0.046015278
98	0xbb600c00	-0.003418684
99	0xbd83e95a	-0.06440993
100	0xbc9e8c10	-0.019353896
101	0x3b9bae60	0.0047510117
102	0xbd0aceb8	-0.03388855
103	0x3d85c2a3	0.06531265
104	0x3d508828	0.0509111
105	0xbd6c0799	-0.057624433
106	0x3c2f56f0	0.01070188
107	0xbc09c844	-0.008409563
108	0x3cfea900	0.031086445
109	0x3d4fdcc0	0.050747633
110	0xbd73a3b5	-0.059482295
111	0x3c130148	0.008972473
112	0x3c756670	0.014978036
113	0x3d013f9c	0.031554803
114	0xbca0306e	-0.019554343
115	0xbc3659a0	-0.011129767
116	0xbd0c447a	-0.03424499
117	0x3cbaf3f8	0.022821411
118	0xbd46a213	-0.04849441
119	0xbd19e990	-0.03757626
120	0x3cc61578	0.024180159
121	0xbca06138	-0.019577608
122	0xbc752f24	-0.0149648525
123	0xbd33b84e	-0.04387694
124	0x3d2eabc6	0.042644285
125	0xbcc5417e	-0.02407908
126	0xbc430a0c	-0.011904251
127	0xbd3af4ea	-0.045643725
128	0x3d5d2a32	0.05399532
129	0xbd08a01c	-0.033355817
130	0x3d855ce9	0.06511862
131	0x3c927ee8	0.01788278
132	0xbd8687a7	-0.065688424
133	0x3d7dc362	0.06195391
134	0x3c8c9980	0.017163038
135	0xbc861224	-0.016366072
136	0xbd804af8	-0.06264299
137	0x3d60c312	0.054873534
138	0xbc9310fe	-0.017952438
139	0xbd851070	-0.06497276
140	0x3d5920d6	0.05300983
141	0x3d5c9646	0.05385425
142	0x3d5c3a10	0.05376631
143	0xbd1621e5	-0.036653418
144	0xbd7d23f1	-0.061801855
145	0x3d7b58a6	0.06136384
146	0xbd65cf17	-0.0561057
147	0x3b3be900	0.0028672814
148	0x3d26dd3a	0.04073832
149	0x3cb1cba8	0.021703556
150	0x3d294398	0.041324228
151	0xbc784a68	-0.015154459
152	0x3d83f93b	0.06444021
153	0xbcc80d7c	-0.024420492
154	0xbd203ce0	-0.039120555
155	0x3d81d2cf	0.06339037
156	0xbd2fe5ad	-0.042943645
157	0xbd3e7e86	-0.04650738
158	0xbbfdeaf0	-0.007748954
159	0xbd24423c	-0.04010223
160	0x3d425aa8	0.047449738
161	0xbb90e450	-0.004421748
162	0xbd1e16a0	-0.038595796
163	0xbd866ce0	-0.06563735
164	0x3b8ec0f0	0.004356496
165	0x3d5ef572	0.054433294
166	0x3d8831d7	0.06650131
167	0xbd0d7666	-0.03453674
168	0xbb9bb5d0	-0.0047518983
169	0xbd6d043c	-0.057865366
170	0x3cdf2d6c	0.027243339
171	0x3d0b5804	0.034019485
172	0x3cc27bd8	0.023740694
173	0xbcbadb96	-0.022809785
174	0x3c934fd8	0.017982408
175	0xbd79cbf4	-0.06098552
176	0x3d55ce6e	0.05219882
177	0xbd2507a3	-0.040290486
178	0x3d1e437a	0.03863857
179	0x3c93893c	0.018009774
180	0x3c3f5778	0.011678569
181	0x3ce0c9a8	0.027439907
182	0x3add96c0	0.0016905889
183	0xbc133778	-0.008985393
184	0x3ca382a4	0.019959755
185	0x3bc4df80	0.0060080886
186	0xbd3b5a22	-0.045740254
187	0xbd0c1671	-0.03420109
188	0x3cea75d4	0.028620638
189	0xbc633d48	-0.013869591
190	0xba85a240	-0.0010195449
191	0x3d02457e	0.031804554
192	0x3d1b01fc	0.03784369
193	0x3c11b0a0	0.008892208
194	0xbc1595b8	-0.009129934
195	0xbd060c4f	-0.032726582
196	0x3d3b3cf4	0.045712426
197	0xbd28f8f8	-0.04125306
198	0xbd74e436	-0.05978795
199	0xbc5fcab8	-0.013659172
200	0xbce98ac2	-0.028508548
201	0x3c9c3014	0.019065894
202	0x3cef7f5c	0.029235534
203	0x3d302f94	0.043014124
204	0x3d2b86d8	0.041876644
205	0x3d443164	0.047898665
206	0x3b727440	0.003699556
207	0x3cd41d98	0.025893018
208	0x3c614480	0.013749242
209	0xbd06ef26	-0.032942913
210	0x3d5a81ba	0.053346373
211	0xbc13ac10	-0.009013191
212	0xbd55d9b3	-0.052209567
213	0x3ab01880	0.0013435036
214	0x3cf0b368	0.029382423
215	0x3c756b08	0.0149791315
216	0xbcebd278	-0.028786883
217	0x3cedd0f0	0.029030293
218	0x3cc4acc4	0.024008162
219	0x3caca0a4	0.021072693
220	0xbd6afe55	-0.057371456
221	0x3c96f89c	0.018429093
222	0xbd5b9cfe	-0.053616516
223	0xbc9db34c	-0.019250534
224	0x3c3a67a8	0.011377253
225	0xbdafe5e2	-0.085887685
226	0x3c382c80	0.011241078
227	0xbd8c5237	-0.06851619
228	0x3d0f4356	0.034976326
229	0x3cd61a21	0.026135506
230	0x3d276456	0.040867172
231	0x3cf17aeb	0.029477557
232	0x3c5e6cb8	0.013575725
233	0x3d7e9dd6	0.062162243
234	0xbd8ea7e4	-0.06965616
235	0xbb32e1db	-0.0027295265
236	0x3c8b4078	0.016998515
237	0xbcc719ba	-0.02430426
238	0xbdc47b84	-0.09593871
239	0xbd083582	-0.033254154
240	0xbca627b3	-0.020282602
241	0xbd372637	-0.04471418
242	0xbc6c2632	-0.014413403
243	0xbd218a37	-0.039438453
244	0x3d00d67a	0.03145454
245	0x3c545a19	0.012960934
246	0xbcdb8be7	-0.02680011
247	0xbd16dff6	-0.03683468
248	0xbd55a311	-0.052157465
249	0xbc1ce45d	-0.00957593
250	0xbcdd50e1	-0.027016105
251	0xbc2b2741	-0.010446371
252	0xbd0eef62	-0.034896262
253	0xbcd82d6a	-0.026388843
254	0xbcdafdce	-0.026732352
255	0xbd1a2ade	-0.037638538

fc1.bias f4 [120]
0	0xbd310784	-0.043220058
1	0x3cc7c8a7	0.02438767
2	0x3d810f0f	0.063017
3	0xbd3dde48	-0.046354562
4	0xbc88a222	-0.016678873
5	0xbda75256	-0.08170001
6	0xbc5cab25	-0.013468538
7	0xbd3ef7e5	-0.04662313
8	0xbd6dbd95	-0.058042128
9	0xb795367c	-1.7787555e-05
10	0xbd70fd89	-0.05883554
11	0xbb3580f7	-0.0027695277
12	0x3bb72931	0.005589627
13	0xbda747db	-0.08168002
14	0x3d6bc84c	0.057564065
15	0x3c51367f	0.012769341
16	0x3c6747ae	0.014116211
17	0xbd246f07	-0.040144946
18	0xbcac1453	-0.021005785
19	0xbdfc5986	-0.12321763
20	0xbc35a4cd	-0.011086655
21	0x3cd7637c	0.026292555
22	0xbbc7af20	-0.0060938746
23	0x3d0ec131	0.03485221
24	0x3ca1823b	0.019715419
25	0x3d1f872a	0.038947262
26	0xbd1cf0ea	-0.03831569
27	0xbd78331b	-0.060595613
28	0xbd9d363d	-0.07676361
29	0xbd76a78d	-0.060218383
30	0xbdaaf744	-0.083479434
31	0xbd93d63c	-0.07218596
32	0xbd59f118	-0.05320844
33	0xbde3351b	-0.110941134
34	0xbdd512f3	-0.10404005
35	0x3d3cd5e1	0.04610241
36	0xbd976aaa	-0.073933914
37	0xbc978627	-0.018496586
38	0xbc1c4df7	-0.009540073
39	0xbd036b22	-0.03208459
40	0xbe035c21	-0.12828113
41	0xbd99222e	-0.074772224
42	0xbc2ad791	-0.010427372
43	0xbd219e35	-0.03945752
44	0xbb803b91	-0.003913351
45	0xbd9198e6	-0.07109241
46	0x3c67231f	0.014107495
47	0xbd17efb2	-0.037093826
48	0x3c42506c	0.011859994
49	0xbdabae72	-0.08382882
50	0xbd145bc2	-0.03622032
51	0xbacc8fd1	-0.0015606825
52	0x3cb0177e	0.021495577
53	0x3af0cce4	0.0018371609
54	0x3c808d94	0.01569251
55	0x3d6f1b72	0.058375783
56	0xbd80ac7c	-0.06282899
57	0xbd757051	-0.059921566
58	0xbda35b42	-0.079763904
59	0xbcd85760	-0.026408851
60	0xbd4d6972	-0.05014939
61	0xbd25696a	-0.040383734
62	0xbad19e9c	-0.0015992704
63	0xbd0586e2	-0.032599337
64	0xbd8c15eb	-0.06840118
65	0xbd2e081d	-0.042488206
66	0xbdf1af87	-0.11801057
67	0xbd07e48c	-0.033176944
68	0xbb19fd00	-0.0023496747
69	0xbca43537	-0.020044906
70	0xbcefb12a	-0.029259283
71	0xbd918e6c	-0.07107243
72	0xbd917977	-0.07103246
73	0x3c8a20a9	0.016861277
74	0xbd995b38	-0.07488102
75	0x3c9c67d0	0.01909247
76	0xbc42586c	-0.011861902
77	0x3ac7e580	0.0015250891
78	0xbdad97b3	-0.084762
79	0x3dacf71a	0.084455684
80	0xbe2a7d7d	-0.16649432
81	0xbd85e430	-0.06537664
82	0xba7f76e5	-0.00097451947
83	0xbc9f16a9	-0.019419985
84	0xbd8e84c0	-0.06958914
85	0xbc4dfb90	-0.012572184
86	0x3cc39910	0.023876697
87	0xbc282989	-0.010263809
88	0xbc97d754	-0.018535294
89	0xbdf6bffb	-0.12048336
90	0xbd6293ec	-0.05531685
91	0xbd88aa3b	-0.06673094
92	0xb9a5a8b3	-0.00031596943
93	0xbcf33a30	-0.029690832
94	0xbda4673a	-0.080275014
95	0xbc15a244	-0.009132925
96	0xbd2384ba	-0.0399215
97	0x3d5d18dc	0.053978786
98	0xbd67f09d	-0.05662595
99	0xbcdf49bc	-0.027256839
100	0xbde8ef83	-0.11373808
101	0xbd7e56b5	-0.06209441
102	0xbd6a97b2	-0.057273574
103	0xbe1b08a9	-0.15140022
104	0x3b13b517	0.0022538358
105	0x3ccc4a3e	0.024937745
106	0xbcb11669	-0.021617131
107	0xbd36400d	-0.044494677
108	0x3d1062ec	0.03525059
109	0xbdef64d4	-0.11689153
110	0xbd33ce34	-0.043897822
111	0xbcea58a7	-0.028606726
112	0x3c39514b	0.011310886
113	0xbbe44e16	-0.0069673164
114	0xbd6da648	-0.058019906
115	0xbb550905	-0.0032506597
116	0x3ca8e30b	0.020616075
117	0xbdaf45f0	-0.085582614
118	0xbd832847	-0.06404167
119	0x3c0d2e97	0.008617065
