Model/RMSprop_ajusted_net.pth (torch, 232780 bytes, 21 tensors)

conv1_1.weight f4 [32, 1, 3]
000000 00 7e a7 3f a4 f7 f8 be 55 27 3c bf f7 9e 31 3f
       1.3085327 -0.48626435 -0.73497516 0.69383186
000010 62 1f c1 be f0 dc 20 bf 7a f3 42 bf ef 09 92 3e
       -0.37719256 -0.62837124 -0.76152766 0.28523204
000020 61 4b 12 3f c7 46 6e 3f 07 92 f7 be 4c b6 d7 be
       0.5714627 0.9307675 -0.48353598 -0.4213127
000030 dc 8b 19 40 b9 68 e3 bf 34 4b 14 bf fb ae 66 3d
       2.3991613 -1.7766334 -0.5792725 0.056319218
000040 12 bb 1e c0 43 9b 77 3f 58 5a 98 3d 22 43 90 3e
       -2.4801679 0.96721286 0.07439107 0.28176218
000050 40 52 0a 3f 78 f5 36 bd fe 9c a0 3f b3 d7 97 bd
       0.54031754 -0.04466769 1.254791 -0.07414188
000060 a6 1b 39 c0 5e d7 0c 40 e4 10 f8 be b0 4f 3c 3e
       -2.8923125 2.200645 -0.48450387 0.18389773
000070 60 a8 c1 3e 30 8d c0 bd ea af 03 bf bb 7b ab 3f
       0.37823772 -0.094019294 -0.514403 1.3397135
000080 67 53 84 bf d4 c9 70 3e 0a 7f 1a c0 c8 0a ba 3f
       -1.0337952 0.23514491 -2.4140038 1.453454
000090 53 74 07 bf 22 b7 f6 3c 64 c0 17 40 03 0f a5 3f
       -0.5291187 0.030116621 2.3711176 1.2895206
0000a0 c1 be 33 c0 cf 27 b3 3f 7a 25 51 bf 3d 12 c8 3f
       -2.8085177 1.3996524 -0.8169781 1.5630566
0000b0 aa ad c0 3e 8e e5 25 be d9 e5 d4 bf 0b d4 04 40
       0.37632495 -0.1620085 -1.6632644 2.075442
0000c0 4b 20 85 3f 04 a4 4f c0 ae 4e ab 3f e5 7e 10 3f
       1.040048 -3.2443857 1.3383386 0.56443626
0000d0 c3 64 35 c0 fc 18 fb 3f 1b 4d 33 3f 0d 4f 90 bf
       -2.834275 1.9617 0.7003953 -1.1274124
0000e0 6a ab 34 3f ee 25 7f be 77 67 26 3f 4f 0b 0e bf
       0.7057406 -0.24916813 0.65001625 -0.55486006
0000f0 c4 ad df 3e 74 91 d6 3e 5e f2 0b 3f e0 3b d6 bf
       0.4368726 0.41907847 0.546667 -1.6737022
000100 1e 66 30 40 cf 1e 57 bf 8f 1f b0 3f 2f 9c 68 bf
       2.7562327 -0.84031385 1.3759631 -0.9086332
000110 4f c2 61 bf 7d 0d 86 40 b7 cf 0a bf f2 13 0d bf
       -0.88187116 4.1891465 -0.542232 -0.5510856
000120 19 d4 0e 3d 1e 1c 7e 3f 99 5d e5 bf ce 73 11 3f
       0.03487024 0.99261653 -1.7919189 0.5681733
000130 4f bc 1c c0 02 04 64 3f 2f 02 38 3e 43 bf 05 c0
       -2.4489934 0.89068615 0.17969583 -2.0897987
000140 3b 90 6b 3f f8 52 59 bf df 0a 47 40 52 4b e6 be
       0.92016953 -0.84892225 3.1100385 -0.4497934
000150 8c ef af 3e 82 50 85 3e b8 72 df 3d 5c 4d 6d 3f
       0.34362447 0.26037985 0.10910553 0.92696166
000160 e7 33 bb be 3a 2e 03 be 77 dd a8 be 57 73 78 3f
       -0.36563036 -0.12810603 -0.32981464 0.97050995
000170 1f 3f 82 be 02 dc 8f 3f 52 8c aa bf 63 76 13 3f
       -0.25438783 1.1239016 -1.3324072 0.5760252

conv1_1.bias f4 [32]
000000 58 7a 96 3d 32 96 0a 3f 4d 3d a2 3d 21 c3 06 3c
       0.07347554 0.5413543 0.079218484 0.008225233
000010 82 46 0e 3f 83 6c d1 be ca 6d cf be fb 89 86 3f
       0.55576336 -0.409031 -0.4051345 1.0510858
000020 ae 24 82 3e 20 68 dd be db 57 67 3f 98 e3 9c 3e
       0.2541861 -0.43243504 0.9036843 0.3064239
000030 82 f9 62 3f c4 8e 26 3f ca 15 56 3f 19 19 33 3f
       0.8866197 0.65061593 0.83627 0.6996017
000040 6e 97 b1 3e ee c6 1e 3f 36 a3 05 3f fd cd 06 3f
       0.34685844 0.6202229 0.52202165 0.52658063
000050 6a ae 11 bf ef 54 8c 3f 4b 73 ce 3e 9e 1b 83 3f
       -0.5690676 1.096342 0.40322337 1.0242803
000060 f9 94 bd be fd 1c 26 be db 85 af bd 17 b0 e5 3e
       -0.3702772 -0.16221996 -0.08570453 0.44860908
000070 b1 c1 b0 be 07 f2 c6 3e 06 2d af 3e 51 50 26 3f
       -0.34522775 0.38856527 0.34214038 0.64966303

conv1_2.weight f4 [64, 32, 3]
000000 d1 0c 8d bd 1b a5 bf bd de 11 b5 bd 4e 1f d9 bd
       -0.0688721 -0.09357663 -0.088412985 -0.10601674
000010 16 bf 03 be 4b 93 9b bd a1 92 37 bd 6c 25 90 3c
       -0.12865862 -0.07596453 -0.04481757 0.01759597
000020 1b 95 a2 bd ae 90 c2 3c 31 d7 a0 bd ec 62 05 bd
       -0.07938596 0.02375063 -0.078535445 -0.032565042
000030 62 8a 9d bc 48 85 a8 bc 8a ad c0 ba 36 8e b5 bd
       -0.019231025 -0.020571366 -0.0014700156 -0.08865015
000040 76 49 1c bd 47 6c 4b bd c6 08 96 bd 5f fb c5 bd
       -0.038155995 -0.04966381 -0.07325892 -0.09667086
000050 6e ad a4 3d 30 a5 8a bd 43 f9 2e bd da 1e 7e bd
       0.080408916 -0.06769788 -0.042718183 -0.06204114
000060 9c f6 8b 3d e3 e4 35 3d 94 da 05 be c4 4f b6 3c
       0.068341464 0.044407737 -0.13071662 0.022254832
000070 b8 a8 f1 bc 38 46 65 3d 8f 67 9b bd 2e a0 02 bd
       -0.029499397 0.05597517 -0.075881116 -0.03189104
000080 ff 50 ab 3d f3 21 f4 bc e2 87 85 3d 84 7a da bd
       0.08365058 -0.029801344 0.06520058 -0.10667899
000090 9b 63 7c 3d 1d 38 99 bc 15 41 63 bd 86 b7 b2 bd
       0.06161843 -0.018703515 -0.05548199 -0.087264106
0000a0 15 4a 04 3d 63 71 14 3c 28 4b 6a bc f0 ae fc 3c
       0.032297213 0.009060237 -0.014300145 0.030845135
0000b0 04 07 b5 bd 29 51 89 3d b6 31 5b bd 99 ed a6 bd
       -0.08839229 0.06704933 -0.053514205 -0.08150787
0000c0 ea 5e 18 3d 70 2f b6 bd c8 85 d0 bd 4a 2e e2 3c
       0.037199892 -0.08895767 -0.10181767 0.027609963
0000d0 78 84 da bb b2 7f fb bd 15 df 2e bc ed 58 cc bd
       -0.0066686235 -0.12280215 -0.010673304 -0.09977899
0000e0 c5 e7 a7 3c f1 a0 f9 bc 5c ab 0e be 98 b9 20 bd
       0.020496259 -0.03047225 -0.13932556 -0.039239496
0000f0 98 44 ba bd ac fa 1c 3d 52 c1 98 3d fb 87 45 3d
       -0.090951145 0.038324997 0.07458748 0.048225384
000100 92 d4 5b bc 58 ce 40 bd 08 6d c5 bd c2 13 ad bb
       -0.01341738 -0.047071785 -0.09639937 -0.0052818963
000110 81 ea d0 bc c2 b6 ce bc a4 15 12 bd f5 ae 36 bd
       -0.025502445 -0.02523363 -0.03566517 -0.044600446
000120 8f 84 7b bd a4 39 8b bd 2b ab a8 bd 4e 04 a6 3c
       -0.061405715 -0.067981035 -0.08235773 0.020265725
000130 d3 d6 ad bd 13 37 46 bd a1 80 38 bc 32 46 fc bc
       -0.0848824 -0.048392367 -0.011261136 -0.03079519
000140 5d 36 ce 3b 47 32 ed bd 9a f3 33 bd 26 39 d3 bc
       0.0062931017 -0.11581855 -0.04393349 -0.025784086
000150 94 25 c3 bc 04 13 29 3d 84 72 09 bd 9c ff dc bd
       -0.02382163 0.0412779 -0.033556476 -0.10790941
000160 4f 31 b4 3d 68 42 84 bc d9 be 1c 3d 25 58 c9 bb
       0.08798467 -0.016144946 0.038267944 -0.006144541
000170 00 e8 5c 3d e7 3b e4 bb 38 af 27 3d 7c aa 4b bd
       0.05393219 -0.0069651487 0.040938586 -0.049723133
000180 0c 5d 74 bd 83 9b 35 3d 92 aa bd bd 58 64 53 bc
       -0.05965905 0.04433776 -0.09261049 -0.012902342
000190 64 5e 1c 3c bd 1f 90 3d b8 58 a0 3c c0 ee d1 bd
       0.009543989 0.070373036 0.019573554 -0.10250616
0001a0 d5 1d ea bd fd 55 7b 3d f9 c0 9b bc b1 61 1e 3c
       -0.11431471 0.0613613 -0.019012915 0.009666846
0001b0 64 74 0e 3d 89 63 c0 3d 54 a3 ab bd bb ee c4 bd
       0.034778967 0.09393985 -0.08380762 -0.09615847
0001c0 03 37 ed bc 74 5b 45 bd a1 2f 27 bd 2a 90 81 bd
       -0.028956896 -0.04818292 -0.040816907 -0.06326325
0001d0 ac 24 a2 3c ce 5e 48 3d f2 40 ad bd dc 6d 83 3d
       0.019792877 0.048918538 -0.08459653 0.064174384
0001e0 86 3c 78 bd ed 8e 62 3d 8b cb 57 bb a0 bc 7b 3b
       -0.060604595 0.055312086 -0.0032927718 0.003841199
0001f0 f0 a4 89 bd f6 05 c7 3d 3c 58 c0 bc bd 03 91 bd
       -0.067209125 0.09717934 -0.023479573 -0.07080791
000200 5c b9 cf bc 11 05 bc bd a5 44 9c 3d 92 5e cb bd
       -0.02535694 -0.09180654 0.076302804 -0.09930147
000210 00 1c ee ba 4a 8a 4c bd c6 4e e1 bb f5 28 00 bd
       -0.0018166304 -0.04993657 -0.0068758456 -0.03128906
000220 ac eb bd bd 24 9a f5 3c 07 93 48 bd 13 38 77 3c
       -0.092734665 0.029980727 -0.04896834 0.015089053
000230 ab ca 44 bd df f5 b8 3c 53 73 84 3d bf bb b7 bd
       -0.04804484 0.022578178 0.06467309 -0.089713566
000240 6a 4d 40 3d 1d 16 5d bd 48 7d 94 3c a2 fb 89 bd
       0.046948828 -0.053976167 0.018126145 -0.06737448
000250 94 41 13 bd 72 1c f6 bc 24 41 61 bd 8d 78 97 3d
       -0.035951212 -0.03004286 -0.054993764 0.0739604
000260 6f bd c2 3d 0a 77 d4 bd 80 e1 bc bd 38 67 4b bc
       0.09508788 -0.103742674 -0.09222698 -0.012414746
000270 f0 38 e5 3c 3f 33 c5 bd b4 67 a3 3d 72 a3 80 bd
       0.027981251 -0.09628915 0.07978764 -0.06281175
000280 44 aa 8a 3c 17 a0 c2 bc 78 11 1b bd b3 ea ea 3c
       0.016926892 -0.023757977 -0.037858456 0.028676366
000290 86 75 7d bd 77 dc 2a be 00 c0 82 bd 4f ca c0 3d
       -0.061879657 -0.16685663 -0.06384277 0.09413587
0002a0 d2 1a 87 bc ec 79 01 3d f2 7e b5 bd 0b 1d ed bc
       -0.016492281 0.031610414 -0.088621035 -0.028944513
0002b0 cf aa 52 3d 63 36 c1 3c 55 a4 23 bc e4 02 13 3d
       0.051432427 0.023585504 -0.00998791 0.03589143
0002c0 23 05 3e bc e7 5d e2 3c f0 a9 ae bc c6 07 b3 bd
       -0.011597904 0.027632667 -0.021321267 -0.08741717
0002d0 10 6f 68 bc d4 8b 76 3d 9e fb cd 3d 5a 9c e8 3c
       -0.014186636 0.060191944 0.10057758 0.028394867
0002e0 70 ec d5 3c ce b1 b2 bd b9 a4 ff bc d2 51 64 3d
       0.026113719 -0.0872532 -0.031206476 0.055742092
0002f0 18 39 74 3d 89 ff f0 3c fd 33 20 bd 8f 44 c3 3c
       0.05962476 0.029418724 -0.03911208 0.023836402
000300 78 40 73 be 8a 43 ba bf 75 90 1b 3f 52 4a 24 be
       -0.23755062 -1.4551861 0.607673 -0.16043976
000310 08 cf 4a be 5b 55 01 be f5 a5 9a 3f f7 36 62 3f
       -0.19805539 -0.12630217 1.2081896 0.8836512
000320 88 39 f8 bf df b7 4a bd 9a 75 52 bf 09 f6 84 3e
       -1.9392557 -0.04949176 -0.82210696 0.2596896
000330 0e d9 ea be c1 29 9e bf 1c 6b f5 3c 68 f8 36 3f
       -0.45868725 -1.2356492 0.0299583 0.7147279
000340 0e ef 0a bd 70 dd 56 be c4 31 a2 bd 82 a3 a4 3d
       -0.033919387 -0.20982909 -0.07919648 0.08038999
000350 46 14 36 bd 35 e1 fb bf 9c c8 43 3f 06 af c4 bf
       -0.044452928 -1.9678103 0.7647798 -1.5365913
000360 0a 21 ee be 78 87 22 3f 5f 55 04 c0 76 5f 9b bd
       -0.46509582 0.6348796 -2.0677106 -0.07586567
000370 08 94 69 bc de 95 8f 3d a8 15 f4 bd 4f d0 0d 3f
       -0.014256485 0.07011007 -0.11918193 0.5539598
000380 2d 3d f9 be 72 97 0d 3f c1 11 18 3e 79 22 f3 be
       -0.48679486 0.5530921 0.14850523 -0.47487238
000390 26 ff 5f 3f aa 65 9d 3f 27 e6 ff bf 5a 2d bf 3e
       0.874987 1.229665 -1.9992112 0.37339288
0003a0 99 78 23 3e 46 ef 6a be 05 f8 19 c0 63 14 94 3f
       0.15963973 -0.22942838 -2.405763 1.1568722
0003b0 6c 96 01 c0 7a f7 33 3f e8 b9 f0 3d 7b 5a 5f bf
       -2.024806 0.70299494 0.11754209 -0.8724744
0003c0 a1 da cd 3e fc a8 59 3e 57 13 9c be b0 83 1c 3f
       0.40205863 0.21255869 -0.30483505 0.6113844
0003d0 f4 7d 26 3e bb 47 15 bf 8d a9 eb 3e 7c ea 67 3e
       0.16258985 -0.58312577 0.46027794 0.22648042
0003e0 12 0b a1 be 32 20 55 bc 13 59 a7 3e 07 ab 8c be
       -0.31453758 -0.013008164 0.32685146 -0.27474234
0003f0 00 dd c1 3a 2c 2b a1 3d f2 45 a0 3d 12 8d 5d bf
       0.0014790595 0.078695625 0.07825841 -0.8654338

conv1_2.bias f4 [64]
000000 3e 9e ac bd a0 77 51 bd 19 8a 3f 3e 8a 63 cc bd
       -0.0842862 -0.051139474 0.18705024 -0.09979923
000010 73 eb 8f 3e c2 7b 64 3c f4 1e 8c 3e d2 f5 a7 bc
       0.2810932 0.013945522 0.27367365 -0.020502958
000020 00 ef 48 3e 53 3a 06 3e ba 81 87 bc be 80 0f 3e
       0.19622421 0.13108186 -0.01654135 0.14013955
000030 9f 8e 43 3d 9d 2a a4 3d 38 3c a3 3e d7 09 df 3d
       0.047743436 0.0801594 0.3188188 0.10890549
000040 15 ab a1 3e 32 e2 e0 bd 45 82 24 bc 44 a1 b1 3c
       0.31575838 -0.10980643 -0.010040824 0.021683343
000050 ec 51 2d 3e 28 90 8a bd 04 cc 47 3e 9b 26 ae 3e
       0.16925782 -0.06765777 0.1951142 0.3401383
000060 1e 5a c7 bd c6 57 d7 3d 94 9e 03 be af 2e 6a 3e
       -0.09733985 0.10514788 -0.12853462 0.22869371
000070 5b 07 39 3e 8a 03 44 3d b7 f0 a0 3d 06 f8 e8 3c
       0.18069212 0.047854938 0.07858413 0.02843858
000080 20 c4 63 3e 50 b3 e3 3d 9b b5 07 be da 83 8e bd
       0.22242785 0.111181855 -0.1325287 -0.069587424
000090 f3 fb 87 be c8 a6 f3 3c fa c4 1e 3d 46 ff 42 3e
       -0.2655941 0.029742613 0.03876207 0.19042692
0000a0 de d8 65 be 01 54 88 bd c2 c5 9c 3d 66 89 2a 3e
       -0.2244601 -0.066566475 0.07654907 0.16653976
0000b0 fd fd 62 3d 74 bd a0 bc ab df d8 3d 8c 1c 3d 3d
       0.055418003 -0.019621588 0.10589536 0.046169803
0000c0 9a 31 92 3e d6 c3 d3 bd aa 49 b2 bc 35 1d 80 3e
       0.28553468 -0.10340087 -0.021763641 0.25022283
0000d0 9c 05 a2 3b 70 bf 1c bc 80 70 21 3e b8 5c 30 bd
       0.0049445163 -0.009567127 0.15765572 -0.043057173
0000e0 54 79 62 bd 63 b8 33 3c 9d 95 ac 3e 88 c7 22 3e
       -0.05529149 0.010969254 0.33707896 0.15896428
0000f0 df a8 6b bc 8d 0a c6 3e 9a 0d 71 3e 2f fc d4 bc
       -0.014383524 0.38679925 0.23540345 -0.025999157

conv2_1.weight f4 [32, 1, 3]
000000 43 35 43 3c 51 24 91 3d 4c ae a0 3f 23 19 29 bb
       0.011914554 0.07087005 1.2553191 -0.0025802336
000010 e7 83 59 3e fc cb 64 3f ad fe b7 bb 43 89 c8 bb
       0.21241723 0.89373755 -0.0056150765 -0.0061198785
000020 60 15 1c 39 50 10 4e 3c 19 5d eb 3d 35 42 b1 3f
       0.00014885282 0.012577131 0.11492366 1.384833
000030 eb 4f cc 3e 1e 7d 79 3e fe 15 c6 bf 2e 95 c5 be
       0.39904723 0.24364135 -1.5475461 -0.38590378
000040 ce 50 2a be 90 8d 67 bd 65 57 1a 3e f6 38 04 3f
       -0.16632387 -0.05653149 0.15072401 0.51649415
000050 6f f2 e7 bf 5f de 61 3d ea 79 d6 3e 11 cd 97 3d
       -1.812086 0.05514371 0.41889888 0.0741216
000060 70 59 a2 bb 63 0f 46 bd 12 91 ad 3f ba 45 ac bb
       -0.0049545094 -0.048354518 1.3559897 -0.0052573355
000070 b6 21 80 bd 74 ea 95 3f 36 ac ad bb fe 87 79 3d
       -0.0625643 1.1712174 -0.00530007 0.060920708
000080 5d 07 33 3f 22 39 2c 3c 7c 12 5d 3e 0f 21 96 3f
       0.6993311 0.010511668 0.21589082 1.1728839
000090 28 68 c4 bb 08 32 84 bc 47 14 a5 3f 13 a8 6b 3c
       -0.0059938617 -0.016137138 1.2896813 0.014383334
0000a0 85 44 a1 3e 35 98 e3 3d 2c d5 58 3e 8c bc 9d 3e
       0.3149759 0.111130156 0.21175069 0.30807912
0000b0 44 fc 98 bc 4e 6b 1e bd 74 fd de bd 1d 37 08 3f
       -0.018674977 -0.038676552 -0.10888186 0.53209096
0000c0 46 34 0d 3c a1 55 be 3d d0 51 9c 3b 48 a0 0c 3d
       0.00861842 0.09293676 0.004770495 0.034332544
0000d0 eb aa 81 3e bf 14 49 3e 0b 62 ba 3c 3c 78 67 3e
       0.25325713 0.1963682 0.022751829 0.2260446
0000e0 fb 74 c6 3f bc b6 ae 3b 42 d0 12 3e d4 d0 e4 3d
       1.550445 0.005331842 0.14337257 0.11172643
0000f0 c2 b4 04 3e da 3e fe 3e 6f ae 98 bf f1 51 96 be
       0.12959579 0.49657327 -1.1928233 -0.2935939
000100 64 03 8c bc 5e a7 49 bd 87 92 63 3e dd c7 70 3e
       -0.01709146 -0.04923188 0.22223864 0.23513742
000110 9b 7f 06 3e d6 6a 86 bf 05 56 94 c0 c5 56 9f 3e
       0.13134615 -1.0501354 -4.6355004 0.31120887
000120 98 f8 02 bc c9 f3 99 bc 28 45 cf 3f a2 0c f5 bc
       -0.00799384 -0.018793004 1.619298 -0.02991325
000130 59 62 dc bb 83 b5 28 3f 66 59 de 3b 89 c8 d8 3e
       -0.006725591 0.65901965 0.0067855595 0.42340496
000140 7a 0d 94 3f 2c 86 98 bc 00 96 50 bc b3 d1 94 3f
       1.1566613 -0.018618666 -0.012731075 1.1626495
000150 df 0e be bb 7a e9 49 3e dd 4e 35 3f 40 4f 66 3a
       -0.0058001126 0.1971797 0.7082346 0.0008785613
000160 b5 20 b4 be b6 b4 68 bf 44 3d 66 3e c2 ce 55 3e
       -0.35181203 -0.90900743 0.22484308 0.20879653
000170 34 8c 47 3f 4c 72 fd 3b cb b0 3c 3e b9 3f 8e 3f
       0.7794831 0.0077345725 0.18426816 1.1113197

conv2_1.bias f4 [32]
000000 05 c5 05 3f 71 78 21 3f 9d a6 28 bf 76 a5 40 3e
       0.5225375 0.63074404 -0.6587923 0.18813118
000010 d5 93 3b bf ac cb 03 bf ab 0f 03 3f 68 8b 18 be
       -0.7327245 -0.51482654 0.5119578 -0.1489693
000020 17 44 60 3f da 0d 96 3f fc 41 28 3f b5 af e5 be
       0.87603897 1.1722977 0.65725684 -0.44860616
000030 e9 04 ce 3f dd 12 19 be 8d 9e 1a be fe 4c 82 3e
       1.6095248 -0.14948602 -0.15099545 0.25449365
000040 47 d3 7f 3e 4d 56 53 bf 0a 26 f8 be 09 bb ea bd
       0.2498294 -0.8255356 -0.48466522 -0.114614554
000050 00 84 a6 be 14 af 99 be d9 cc 6f bf a2 fb 12 40
       -0.32522583 -0.30016387 -0.9367195 2.2966084
000060 3b 90 57 3e eb 09 9b 3f bb d4 aa 3e df db 68 3f
       0.21051113 1.2112402 0.33365425 0.90960497
000070 85 e4 2b 3f 8e 97 b1 3c ac 5d 2e be 71 c6 97 3d
       0.6714557 0.021678712 -0.1702792 0.074108966

conv2_2.weight f4 [64, 32, 3]
000000 27 98 3f 3d 67 88 52 3d 3f f7 0e bc ac c3 bd bd
       0.046775963 0.051399615 -0.00872594 -0.09265837
000010 c2 65 ae bd 77 d7 89 bd 1c a9 a6 3d 2c cd 77 bd
       -0.085155025 -0.0673055 0.08137724 -0.0604984
000020 fa a9 82 bd 37 aa df bd 95 78 ac bd 64 a5 40 bc
       -0.06380077 -0.10921138 -0.08421437 -0.011758182
000030 2f 8c aa bd 9c ec 07 bd 0d 89 d0 bd 07 92 3f bd
       -0.08327519 -0.033184633 -0.1018239 -0.046770122
000040 ea 83 49 bd 86 cb 94 3d ea 98 65 3d 83 cc af bd
       -0.04919807 0.072653815 0.056054033 -0.085839294
000050 80 0e 54 bc 42 f4 3c bd d3 9e be bc 40 dd 3c 3b
       -0.01294291 -0.04613138 -0.023269093 0.0028818399
000060 c5 37 b6 bd 3a 55 95 3b d4 e8 ba 3d 9f 33 ae bd
       -0.08897356 0.004557279 0.0912644 -0.0850594
000070 05 8f b4 3d ee 7e ea 3c 91 ed 15 bc a9 48 5d 3d
       0.08816341 0.028624978 -0.0091508785 0.054024372
000080 c0 c3 81 bb b0 70 51 3d 44 03 16 3c 7a 08 99 bd
       -0.003960103 0.051132858 0.009156052 -0.0747232
000090 20 03 88 3d 36 3e 96 bc 74 ff 9f bc 87 4a 6a 3d
       0.06641221 -0.018340211 -0.01953099 0.05719998
0000a0 a0 4a b7 3d fc 63 96 bd b3 e9 d1 bd 69 48 bb bd
       0.089497805 -0.07343289 -0.10249653 -0.091446705
0000b0 6f 58 a5 bd 2f 5e b4 3d 1c 9c 65 3b c8 a7 47 bc
       -0.08073508 0.088070266 0.0035035675 -0.012185998
0000c0 18 7b d0 bd 68 05 73 bb 22 80 a2 3d 6e 3b be bd
       -0.10179728 -0.003708208 0.07934596 -0.09288679
0000d0 cc 6c 80 bc cf 71 1e bd 52 3b 58 bd 8a 77 d2 bc
       -0.015676878 -0.038682755 -0.052790947 -0.025691766
0000e0 b8 a9 17 3d ae 72 f7 3b f6 48 49 3d bc e2 88 bd
       0.03702709 0.0075515127 0.049141847 -0.06683871
0000f0 2e 84 07 bd b4 60 a7 bd e4 fc 58 bd 55 00 69 bd
       -0.03308504 -0.081727415 -0.05297555 -0.056885082
000100 a4 c5 8f bd d6 98 0f bd 1e a4 8c bd 08 35 44 3b
       -0.07020119 -0.035057865 -0.0686724 0.0029938836
000110 d5 e8 bc bd eb af 5e 3d a3 38 87 bc 0c f3 c5 bd
       -0.09224097 0.054366987 -0.016506499 -0.09665498
000120 21 ff 92 bd df 20 82 bd 2a 57 c7 bd 6c 7f b7 bd
       -0.07177568 -0.06353926 -0.09733422 -0.08959851
000130 fa 51 e4 3c 68 91 d6 3c 14 0f d9 bd 62 9f 5c 3d
       0.02787112 0.026192382 -0.10598579 0.053862937
000140 4e 74 13 3d 08 1d 10 3c 61 18 8d bd b8 7d 10 bb
       0.03599959 0.008795984 -0.068894155 -0.002204759
000150 8c e8 91 bd 04 14 8e 3d ba 88 38 bd 58 eb de 3c
       -0.07124433 0.069374114 -0.045052268 0.02721183
000160 55 1a 94 bd a4 57 c2 3d 52 30 b4 bc fe 39 f3 3c
       -0.07231585 0.094893724 -0.021995697 0.029690739
000170 cc 5a 82 3d a8 1e 3d 3b 4c f9 58 3d b1 e0 5c bd
       0.063649744 0.0028857384 0.052972123 -0.05392522
000180 6f 09 0e 3d 92 89 ef bd 60 85 bc bd 0d a1 1c bd
       0.034676965 -0.11696161 -0.09205127 -0.038239527
000190 c2 09 b8 bd f1 f7 49 bd 89 13 91 bd a4 f0 3a 3d
       -0.08986236 -0.04930872 -0.07083804 0.04563965
0001a0 0a 0b a3 3d ab 2d 1c 3d bd 74 7c 3d 71 5e 45 bd
       0.0796109 0.03812949 0.061634768 -0.04818577
0001b0 1d f6 c6 bd 4d f1 a7 bd cd e1 88 3d a6 ff a1 bd
       -0.09714911 -0.08200321 0.06683693 -0.07910089
0001c0 68 b0 fa 3c 18 c7 42 3d 34 d4 4e 3d 6c b8 a4 bd
       0.030601695 0.04755315 0.05049534 -0.08042988
0001d0 04 21 1d 3d c4 07 a5 bd ad 78 41 3d 9e ee ea bc
       0.038361564 -0.08058122 0.047234226 -0.028678235
0001e0 86 db 15 3d 9c 70 ca 3c 7f d1 65 bd 36 cc 2f 3c
       0.036586307 0.0247119 -0.056107994 0.01072984
0001f0 fd 02 ea bd 62 22 5b 3c 82 e6 a9 3c 55 f6 0c bd
       -0.11426351 0.013374897 0.020739798 -0.034414608
000200 c2 15 83 bd 93 f5 c2 bc 4c ed 60 3c 15 0b 29 bd
       -0.06400634 -0.02379874 0.013728451 -0.041270334
000210 f8 b6 7a bd 99 55 d4 bc 58 91 5c bb 74 68 04 bd
       -0.06120965 -0.025919722 -0.0033655968 -0.032326177
000220 0a 2f 54 3c 8c 1e 9c bd cb 5e 91 bd d6 bf 96 3b
       0.012950668 -0.07623014 -0.070981584 0.0046005053
000230 d0 10 fd ba 8f 7b e3 3c 7d 33 f7 bc 37 64 c5 3c
       -0.0019307379 0.027768878 -0.030175919 0.024095638
000240 f7 02 93 bd ba 94 ac bd fa e5 8f bd f5 45 8b bc
       -0.071783 -0.08426805 -0.070262864 -0.017001132
000250 20 da c1 ba 3b 87 6c bd e4 a3 81 bd ea e5 3f bd
       -0.0014789738 -0.057746153 -0.06330088 -0.046850123
000260 bc 16 9c bd 0e 4e 94 3d 39 4f 88 bd 87 0b d2 3d
       -0.07621524 0.0724145 -0.066557355 0.10256105
000270 ec ea 9d bc 92 31 27 3d 3d ba 79 3d c8 96 60 bd
       -0.019277059 0.04081876 0.060968626 -0.054831296
000280 b0 9f 4f bc e8 74 bf bc b0 6c f7 bc a1 69 c3 bd
       -0.01267235 -0.023371175 -0.030203193 -0.095416315
000290 7d d1 fe 3c 2b 81 af bd 8e 94 fa bd ed 98 cb bd
       0.031105751 -0.08569559 -0.12235366 -0.09941278
0002a0 7b 9a e6 bd 1f 75 98 bd b1 1b 8f bc d5 34 41 3c
       -0.112599336 -0.07444214 -0.017469259 0.011792381
0002b0 22 8a 25 3d 6f 21 ee 3c 72 83 80 3d d5 a4 a6 3d
       0.040414937 0.029068677 0.06275071 0.08136908
0002c0 85 5e 25 bd f4 3f 51 bb ef e8 f3 3d 22 c2 ef bd
       -0.040373344 -0.0031928988 0.11909663 -0.1170695
0002d0 eb 1a 62 bd 69 c3 c0 bd b8 9c 99 3a 4c e0 4b 3d
       -0.055201452 -0.094122715 0.001171968 0.049774453
0002e0 68 0f c6 3c 7c a4 07 3d 46 82 8f bd dc 6a cc bc
       0.024177268 0.03311585 -0.070072696 -0.024953298
0002f0 34 a1 ef bd 74 1f 1a bc b6 d2 75 3d d4 d1 ea bc
       -0.11700669 -0.009406913 0.060015403 -0.028664507
000300 ee ff fc 3d 97 c5 0c 3c 04 08 fd bd 30 53 25 3d
       0.12353502 0.008592031 -0.123550445 0.040362537
000310 1a 0d a3 bd e6 92 eb b9 24 79 2a 3d 9e a8 d7 3d
       -0.07961483 -0.0004493214 0.041619435 0.10530208
000320 ab 1f 09 3e 6c 3e 33 3e e9 5f 47 3e 08 9a 54 be
       0.13390987 0.17504281 0.1947018 -0.20761883
000330 b7 59 8d bd 2c 06 90 be 78 73 fc 3e b6 44 05 bd
       -0.069018774 -0.2812971 0.49306846 -0.03253623
000340 20 cd 9f bd 30 f5 0d bc e3 e4 9d be 62 ee a6 be
       -0.07802796 -0.008664414 -0.3083869 -0.32603747
000350 46 12 34 bd 6d 4b 30 be db ac ae 3d 1f 61 be 3e
       -0.04396274 -0.17216273 0.08529063 0.37183473
000360 8b 24 57 3d 7b fc f3 3d 41 82 64 be 67 af 53 3e
       0.052525084 0.11913391 -0.22315313 0.2067238
000370 ff c1 2d 3c 8a c8 d3 be 24 70 a8 bc f2 0f b0 bd
       0.010605334 -0.41363937 -0.020561285 -0.08596791
000380 50 18 80 bc 75 4f af 3c c0 25 80 bd f6 48 ab bd
       -0.015636593 0.021400193 -0.062572 -0.083635256
000390 32 ea 26 3f 1d 0b 8c 3e 39 0d 8c be 89 9f 6a be
       0.65201104 0.2735223 -0.27353838 -0.2291242
0003a0 aa 85 b2 bd d3 08 d6 3d 9d 73 fb 3c 86 84 e5 bd
       -0.08716901 0.10450902 0.030694777 -0.112069175
0003b0 78 26 5b 3e c0 54 f0 3d 4e b0 7d be ba 1b 33 bf
       0.21401393 0.11734915 -0.24774286 -0.6996418
0003c0 5a d5 db bd e1 2b 99 3d c6 d4 8a 3e d2 32 8d bd
       -0.10734053 0.07479072 0.27115458 -0.06894459
0003d0 54 92 8f bc 6d 67 a9 3d 24 a7 d8 3b 04 6b 37 be
       -0.01752583 0.0827168 0.0066117216 -0.17911917
0003e0 5b 1f 9a 3d e0 2e 53 bd ab 94 06 3c 64 ce 4b 3e
       0.07525512 -0.051558375 0.008214156 0.1990295
0003f0 c1 85 55 be b4 5d 94 be 5e 7a 5b 3c b0 16 6f 3d
       -0.20851804 -0.2897774 0.013395874 0.058371246

conv2_2.bias f4 [64]
000000 d8 16 2b bd 84 08 c3 3b 38 1d 87 3c 81 8f 60 3d
       -0.041769832 0.005951943 0.016493425 0.054824356
000010 fa 02 e4 bc c0 d0 e2 3c 7a 10 74 bd 72 8a 8d 3a
       -0.02783345 0.02768743 -0.059586026 0.0010798706
000020 5c 3f b0 3f be 78 46 be 84 54 05 3f a0 b3 24 bf
       1.3769336 -0.19381997 0.52082086 -0.64336586
000030 fd 56 1d bd c9 6a be bd bd d5 87 3b c8 32 ec bd
       -0.038413037 -0.092977114 0.0041453526 -0.11533123
000040 04 af 86 bd 76 e1 ea bc 88 ba a3 bb 59 a1 73 be
       -0.0657635 -0.028671961 -0.0049966015 -0.23792018
000050 8e 82 89 bc 0c ef 1d bd fe b2 e9 bd df 62 e1 3f
       -0.016785886 -0.03855805 -0.11411093 1.7608298
000060 ff 60 87 3f 77 62 ea bc 18 c4 a0 bd c4 99 06 be
       1.0576476 -0.028611405 -0.07849902 -0.13144594
000070 a4 ca 92 bd f2 8f 6f 3f 11 a1 39 bc c5 e8 9f 3c
       -0.07167557 0.9357902 -0.011329905 0.019520173
000080 7b 46 b0 bd cd 7b ab bb db 76 0f bd d8 f3 ae 3f
       -0.08607193 -0.005233264 -0.03502546 1.3668165
000090 d8 b7 81 3e ec 5d d0 bd 14 46 6e bd cc 18 a7 3e
       0.25335574 -0.10174164 -0.0581723 0.32636106
0000a0 78 33 1c bd d5 22 97 bd 1d 48 7c 3f 1d 02 a7 bc
       -0.038135022 -0.073796906 0.98547536 -0.02038675
0000b0 f0 72 a7 3c 6b e2 09 be 97 23 ef bd 24 6d 4e bc
       0.020440549 -0.13465278 -0.1167671 -0.012599263
0000c0 9c a0 91 bd b1 b9 b2 3f 8c 94 7c bd 3f 72 91 bd
       -0.07110712 1.3962919 -0.061665103 -0.07101869
0000d0 4f 0d 1d 3f cf 6b 99 bd 18 e8 85 bd cf 03 36 3e
       0.6134843 -0.07491266 -0.06538409 0.1777489
0000e0 80 ad bb 3d 07 fc ef bd a0 1c fa 3e 5d 5d 56 3f
       0.09163952 -0.11717992 0.48849964 0.8373621
0000f0 81 d6 fe bd f0 f9 c6 3d 9a b0 c3 3c 5b dd 95 3c
       -0.12443257 0.097156405 0.023887921 0.018294027

conv3.weight f4 [32, 1, 1]
000000 04 82 35 bf 18 04 e0 be d6 f0 5b 3f 22 8a 0e bf
       -0.70901513 -0.43753123 0.8591436 -0.55679524
000010 6c b0 81 3e f4 bb ae be ec 85 30 3f 0a ce 1e 3f
       0.25329912 -0.34127772 0.6895435 0.6203314
000020 94 cb 98 be c0 d0 4c 3d 6c 8c cd be 3c c3 d2 be
       -0.29842818 0.050003767 -0.40146196 -0.41164577
000030 ac ac e8 3e fc 63 fe be 42 a1 3f bf 40 0f 30 bd
       0.45444238 -0.49685657 -0.74855435 -0.042983294
000040 e0 26 c8 3e b8 02 30 bf 42 27 21 3f fc 93 a6 be
       0.3909216 -0.6875415 0.6295053 -0.32534778
000050 b4 95 15 bf ea 7c 60 3f f0 4a 16 bf ea 95 6d 3f
       -0.58431554 0.87690604 -0.58708096 0.92806876
000060 b8 da 3a 3e 20 46 94 3d 84 5b 66 3f d6 d9 40 bf
       0.18247497 0.07239938 0.8998339 -0.7533239
000070 ae 84 37 bf 9e a1 20 3f a0 fc 6e 3e 00 00 0e b9
       -0.7168683 0.6274661 0.23338556 -0.00013542175

conv3.bias f4 [32]
000000 90 75 1d bf d8 40 02 be fe b0 67 3f 08 63 5e 3f
       -0.6150751 -0.12720048 0.90504444 0.8686986
000010 6c d4 cc 3e 14 28 ac be fe 6a 3a 3f 00 ae 39 bf
       0.40005815 -0.33624327 0.7281951 -0.7253113
000020 f0 0b 66 3f 9e ab 0a bf a0 f8 6b 3e 00 b4 b2 3d
       0.89861965 -0.5416812 0.23044062 0.087257385
000030 b4 d3 4e 3f de 56 76 3f 5c c4 7c bf 5a 26 2d bf
       0.80791783 0.962263 -0.9873712 -0.67636645
000040 22 73 73 bf e2 27 58 3f f8 9b 2e 3e 9c 29 c7 3e
       -0.95097554 0.84435856 0.17051685 0.38898933
000050 4a 7d 00 bf 30 e5 9e 3d ae e3 5e 3f 20 32 e8 be
       -0.50191176 0.07758558 0.8706616 -0.45350742
000060 ea 01 46 bf 0c b6 ac 3e 32 a9 23 bf b8 20 7d bf
       -0.7734667 0.3373264 -0.63930047 -0.9887805
000070 48 4b 3f 3f ac 41 b6 be 68 bc 9c be 88 e1 6f be
       0.74724245 -0.3559698 -0.30612493 -0.23425877

fc_channel3.weight f4 [32, 1]
000000 b8 9a 80 b9 d8 4f 26 ba 8a 49 32 ba ec 20 f2 3d
       -0.00024529337 -0.0006344295 -0.00068011193 0.118226856
000010 b2 61 72 bf 3a 37 8e bb cc 76 50 bf 38 da 61 bf
       -0.9468032 -0.0043400796 -0.8143127 -0.882236
000020 e6 1a 13 bf 82 52 0e ba a9 ed 89 b9 d8 c0 29 b9
       -0.5746292 -0.0005429165 -0.00026307747 -0.00016188936
000030 ac 1b 67 ba 84 2d 94 3e e8 c1 28 b9 39 7e ec 3d
       -0.0008816074 0.28940976 -0.00016093964 0.115475126
000040 38 de 72 bf 50 af c2 38 f8 ef ff be 8d b7 07 3f
       -0.9487033 9.2832954e-05 -0.4998777 0.5301445
000050 00 92 bb 36 46 6c 10 bf 38 88 87 be 6c 1b f1 b9
       5.590031e-06 -0.5641521 -0.26471114 -0.00045987533
000060 d8 d2 77 bf 20 05 16 b8 68 74 f1 be b4 ce 4b b8
       -0.968061 -3.576756e-05 -0.47159123 -4.859148e-05
000070 58 ab 09 be 0c 11 a0 b9 15 0f 28 ba 24 ed b7 be
       -0.13444269 -0.0003053028 -0.0006410939 -0.3592311

fc_channel3.bias f4 [32]
000000 fb 02 d0 3e 07 eb ef 3e 7e 58 6d bf 89 97 81 3e
       0.40627274 0.46859 -0.92713153 0.25310925
000010 f0 11 45 3f 95 26 5d be 00 99 84 3b 40 38 fa bd
       0.76980495 -0.21596749 0.0040465593 -0.1221776
000020 50 bb 45 bf 6f 62 26 be 96 58 08 3e a2 06 75 3a
       -0.7723894 -0.16248487 0.13315043 0.00093469967
000030 dd 8b 2f bf 58 0d a6 be 17 0b 25 bf b6 b6 69 bf
       -0.6857279 -0.32432055 -0.64470047 -0.9129442
000040 42 36 1e bf 02 ed 8f bf 00 51 37 be 0c 92 42 bf
       -0.6180154 -1.1244204 -0.17901993 -0.760041
000050 39 e4 1d bf 54 fb ff 3e be 63 32 3f ce f0 27 bf
       -0.61676365 0.49996436 0.69683444 -0.65601814
000060 50 a4 59 3f 80 51 c8 be 66 25 11 bf 87 d7 ae be
       0.85016346 -0.3912468 -0.5669769 -0.3414881
000070 c0 0e 09 be 38 b8 89 bf 0c f4 34 bf 40 20 0f be
       -0.13384533 -1.0759344 -0.70684886 -0.13977146

conv4_1.weight f4 [32, 1, 3]
000000 4f 33 27 3e 37 97 18 3f f5 f1 88 3d b9 1d a2 bd
       0.16328166 0.59605736 0.06686775 -0.079158254
000010 cf bc dd be 26 9e af 3f 55 e1 e4 3e 42 13 26 3e
       -0.43308112 1.3720138 0.44703165 0.16218284
000020 aa 24 85 3f a7 a5 57 bf b8 76 d5 bf ad 2d e2 bd
       1.0401814 -0.8423714 -1.6676855 -0.11043868
000030 dc 93 25 bd df b2 21 3f 9e 1e 2b 3f bf 4e 28 bf
       -0.040424213 0.6316356 0.66843593 -0.65745157
000040 70 53 29 3f 47 90 9c bf 20 c5 7c bd 46 d3 2b 3f
       0.6614294 -1.223153 -0.06171143 0.6711925
000050 b4 bb 76 3f 80 b6 1a 3f 9e 05 f9 3b 65 aa 38 bf
       0.9638016 0.6043472 0.0075995466 -0.72135
000060 69 cb 18 bd fd 53 18 3e 36 2f 6e bf 73 52 b7 bf
       -0.037303362 0.14875789 -0.9304079 -1.4322037
000070 2f 6b e7 bf 6f 2f c5 3d c8 28 33 c0 52 32 2b 3e
       -1.8079585 0.09628188 -2.799364 0.16718414
000080 d1 1b f7 3e 1b 6e 48 be 96 86 5d bd af fc bb 3f
       0.4826341 -0.19573252 -0.05408343 1.4686488
000090 77 bf f9 be bd 64 00 bd b3 37 9f 3f f1 84 b1 3e
       -0.4877889 -0.03134607 1.2438873 0.3467174
0000a0 cb b5 a1 3e 46 2b 46 3f 3e 18 1a 3f 8b 67 38 3e
       0.3158401 0.7740978 0.6019324 0.18008249
0000b0 c1 bb 78 3f 8c 06 b0 bf 6a df de bf a4 24 9c 3d
       0.9716149 -1.3751998 -1.741193 0.07624176
0000c0 72 52 21 bf c5 4c 90 3e b5 5e 48 bf 9c 27 02 3f
       -0.63016427 0.2818357 -0.7826951 0.5084169
0000d0 56 4b c3 3c c8 b3 ef 3e 55 7b 2e bf a5 3d 17 3f
       0.023839634 0.4681685 -0.6815694 0.5907844
0000e0 1f 87 b8 bf 40 e5 1d be 75 24 9c bf 4d 84 ae 3f
       -1.4416236 -0.15419483 -1.2198626 1.3634125
0000f0 69 7e be bf e6 5b c9 bf d1 9f f2 3d dd 7c 3b bf
       -1.4882327 -1.573117 0.11846889 -0.732374
000100 f3 46 96 3e e0 d2 44 bf dd b7 2a 3f 62 19 83 3d
       0.29351005 -0.7688427 0.66686803 0.06401326
000110 15 7a b6 3e 90 aa cc 3e 26 92 01 3e b5 06 43 3f
       0.35640016 0.3997388 0.12653407 0.7618211
000120 26 bb f2 bf 2d 7a a0 bf cf b7 87 3e 33 29 05 3f
       -1.8963363 -1.2537285 0.26507422 0.5201599
000130 c7 d9 a3 3e e6 2f 95 3e e8 13 a0 3e 34 03 52 bf
       0.32002088 0.29138106 0.31265187 -0.8203614
000140 32 3f a8 bf 2a 4c b6 be df be b0 3e cc 1a 60 bf
       -1.3144286 -0.35604984 0.34520623 -0.8754089
000150 14 b1 a6 bf 08 f2 45 3f e0 0c 5e 3e 23 15 aa be
       -1.302279 0.77322435 0.21684599 -0.3321925
000160 5a 43 44 bc fd ad a7 3f 0f 3a cf 3e 63 bd 00 3f
       -0.0119789485 1.3099972 0.40473983 0.5028898
000170 f5 81 8a 3e af 44 04 bd 31 2f 62 bf 02 9c 50 3f
       0.27052274 -0.032292064 -0.8835326 0.8148805

conv4_1.bias f4 [32]
000000 2c 5d 72 be d4 72 be 3f 22 bd ad be c2 9c 95 3f
       -0.23668355 1.4878793 -0.3393336 1.1688464
000010 e6 f3 0f bf 63 3f b5 3f dd ce fd be 8f a7 d6 be
       -0.56231534 1.4159969 -0.49571887 -0.41924712
000020 23 b5 bf 3f 7d 27 83 3f 57 ee a8 3f 17 c6 be 3e
       1.4977154 1.0246426 1.3197736 0.37260506
000030 b9 81 4c bd cf 83 cc be b2 e3 bf be 6d 12 a9 3f
       -0.0499284 -0.39944312 -0.37478405 1.3208748
000040 71 ea 1d 3f de b4 59 be 36 ff a1 3f 33 a4 d6 3f
       0.61685854 -0.21260402 1.2656009 1.676886
000050 2e 1c 92 3f 50 7c 2d 3f ed ab f2 be 6f 26 51 be
       1.141485 0.6776781 -0.47396794 -0.20424818
000060 23 02 f6 3e 3a 2f 30 bf 7d 33 97 3f 2a f1 0a 3f
       0.48048505 -0.6882206 1.1812588 0.5427424
000070 83 53 a5 3f aa 24 36 bf ef b2 7a bf 1a f7 63 3f
       1.2916111 -0.71149695 -0.9792928 0.8904892

conv4_2.weight f4 [64, 32, 3]
000000 d9 f1 6b 3e e0 2b 83 be 68 77 b3 be c8 80 e5 be
       0.23041476 -0.2561941 -0.35052037 -0.44824815
000010 6e 1d 3e 3f a5 4a 16 3f 1c 96 94 bf e8 81 a5 be
       0.74263656 0.5870765 -1.160831 -0.32325673
000020 d0 17 ac 3d ff 4b 66 bf 7a 72 33 be 96 35 dc 3e
       0.084029794 -0.8995971 -0.17524138 0.43009633
000030 47 68 e1 3d 8e e5 5c bf 48 c2 04 bf 99 f6 ee 3e
       0.110062174 -0.8628777 -0.5185895 0.46672514
000040 c2 01 69 be 48 3a 53 3f da 99 ac 3d 8c 67 57 bf
       -0.22754577 0.82510805 0.08427782 -0.84142375
000050 28 dc b8 be c3 68 2c bf a9 7c 81 3e 1e 1b a3 bd
       -0.36105466 -0.67347354 0.2529042 -0.079641566
000060 80 5d b3 3e 9c 13 c6 3e 45 c4 0e 3f 92 98 62 bf
       0.35032272 0.38686836 0.55768234 -0.88514054
000070 75 d2 4a be 34 7c cc 3e 86 bd 03 be ed f6 3b be
       -0.19806845 0.3993851 -0.12865266 -0.18355913
000080 bf a2 45 3f c6 2b a1 be 79 0e 13 be 31 c1 60 3f
       0.77201456 -0.3147871 -0.1436099 0.87794787
000090 2e bc 9f be 3d 6d 8c be 03 88 4e 3f 39 4b 32 bf
       -0.31198257 -0.27427092 0.8067629 -0.6964603
0000a0 90 c5 29 be 1e 4b d1 bd b8 49 99 bf 3e 90 a3 be
       -0.1657927 -0.102194056 -1.1975622 -0.31945986
0000b0 da 97 42 bd 94 c1 42 bf 03 eb 51 be df 1e ee 3e
       -0.0475081 -0.76076627 -0.20499806 0.46507928
0000c0 cf 33 3b 3f d5 80 9f bd 46 32 8b 3f e7 44 6e bf
       0.7312593 -0.07788245 1.0874717 -0.93073887
0000d0 28 00 17 3e 89 cf 1a be 81 f8 40 3f c7 1e 79 be
       0.14746153 -0.15118231 0.75379187 -0.24328147
0000e0 c5 1c 64 3f d5 fe d8 be f9 8a e5 3e d2 a1 e0 3e
       0.891064 -0.4238192 0.4483259 0.4387346
0000f0 15 c2 4f bf fc 44 58 be a8 35 ba 3e 30 04 27 3f
       -0.8115552 -0.21120065 0.3636906 0.65240765
000100 ea d5 19 3d 2d 86 6c 3f e4 e2 73 bf 8b 8c 43 3d
       0.03755752 0.92392236 -0.9526808 0.047741454
000110 b1 ca ce be d5 46 6f bf 9b 23 f2 bc 9b f3 ad 3d
       -0.40389016 -0.93467456 -0.029557994 0.0849373
000120 cb 2c 56 bf 8a fd b7 be bc a8 7c 3e e4 df 3d bf
       -0.836621 -0.35935622 0.24673742 -0.74169755
000130 fd ae 43 3d d7 c0 d1 be 16 f3 fe be 65 4b 25 3f
       0.047774304 -0.40967438 -0.49794835 0.6456817
000140 9b 6c 36 3f 5b 7f 48 3f 1a 1d 20 3e 3f 02 94 3f
       0.7125947 0.7831933 0.15636101 1.1563185
000150 6b 2c 53 3c 97 02 ed 3d 55 0d 69 3f e8 b0 35 bf
       0.012889008 0.115727596 0.9103597 -0.7097306
000160 92 23 08 bf a9 35 58 3f 63 22 08 bf b5 02 32 be
       -0.53179276 0.8445688 -0.5317747 -0.17383845
000170 e8 76 44 bf 1e a6 bf be 72 8f 2c 3f 88 01 ff 3e
       -0.76743937 -0.37431425 0.6740638 0.49805856
000180 a8 22 f4 3d b3 cf 40 3d f3 82 ce 3d e3 fa cc be
       0.11920673 0.047073077 0.1008357 -0.4003516
000190 34 1a e2 3e 12 77 b5 3e db 8d 7b be 01 c9 ba 3d
       0.44160616 0.35442406 -0.24565832 0.0912037
0001a0 63 81 a8 be fc cb 64 bf a9 43 87 bd fa 25 80 be
       -0.32911214 -0.89373755 -0.06604702 -0.25028974
0001b0 39 21 9b bd 44 7f 15 be c6 1b 9e 3d 27 c0 19 3e
       -0.07574696 -0.14599329 0.07720141 0.15014707
0001c0 67 5e dc 3e 96 66 52 3f 25 0e a8 3c e8 f6 29 be
       0.43040773 0.82187784 0.020514557 -0.16598094
0001d0 73 f6 0c 3d c5 41 02 bf 3f b1 a4 3d 38 67 41 be
       0.03441472 -0.50881606 0.080416195 -0.18887031
0001e0 0c 1e 09 3e a1 b9 47 3d 62 f6 3e bd 37 8f 0c be
       0.13390368 0.048761014 -0.046621688 -0.13726507
0001f0 5e b6 ca bf 6d ed cb bd b7 c5 3f 3e 47 19 40 bf
       -1.5836904 -0.09957395 0.18727766 -0.7503857
000200 aa df 23 3f bd 07 fb bd 07 d6 e4 3e b1 c2 66 3f
       0.6401316 -0.12257335 0.4469454 0.90140826
000210 ba 99 a6 bd 68 56 0b 3f 29 38 1c 3f 44 71 16 be
       -0.0813479 0.5442872 0.61023194 -0.14691645
000220 8a af 8b 3d d4 f9 de be 54 b2 da be ae 9a aa 3d
       0.06820591 -0.4354998 -0.4271418 0.08330284
000230 6c 56 95 be 0a 37 01 bf 38 3f 96 bf db a7 e8 bd
       -0.29167497 -0.5047461 -1.1738043 -0.11360141
000240 48 c2 cb 3e 02 31 a3 3f bc 64 42 3f 9e ef 9b be
       0.39796662 1.2749331 0.7593496 -0.3045625
000250 ea 7f 49 3d a9 2f 0d be dd b1 81 3e d1 0e 9d 3f
       0.049194254 -0.13787712 0.2533101 1.2270147
000260 6e 3e 36 3f fa 02 5c 3f 9b 84 cc 3e a2 1d b7 3d
       0.7118901 0.8594204 0.3994492 0.08941199
000270 89 ce bd be 93 ca c9 bf 82 54 b0 3d 2f 22 b1 3e
       -0.37071636 -1.5764946 0.086098686 0.34596393
000280 67 d2 38 3f b3 55 59 3f bd 32 05 bf e3 9e ed 3d
       0.7219605 0.8489639 -0.52030545 0.11602571
000290 fe c1 a3 be fb 4b 22 be 0a bc b3 bc 0a a1 88 be
       -0.31983942 -0.15849297 -0.02194025 -0.26685363
0002a0 2b 06 51 3c a3 78 65 bf bd 94 9c bd 7a 44 30 be
       0.012757818 -0.896372 -0.07645557 -0.17213622
0002b0 d3 ab 48 bd 30 82 51 be ed ff f0 be a8 49 a3 3e
       -0.04899199 -0.20459819 -0.47070256 0.31892133
0002c0 ee 31 05 3e 96 ca e7 3e 6c 55 a9 3f 56 80 48 3f
       0.13007328 0.45271748 1.3229194 0.78320825
0002d0 33 21 06 3e a2 fb ea be ef a4 48 3f e9 91 cd bd
       0.13098602 -0.45895106 0.7837667 -0.10037596
0002e0 d2 9d ef 3e 58 0a 4e 3f d4 9b 1d be 3e c9 33 3b
       0.46800095 0.80484533 -0.15391475 0.0027433182
0002f0 42 60 c7 be b6 2e 51 bf c3 f9 e9 3e a5 4a 71 3c
       -0.38940626 -0.817119 0.45698366 0.014727269
000300 de f2 74 bf 46 58 51 bd 1a 76 ca be b7 67 db 3d
       -0.95683086 -0.051109575 -0.3954323 0.107131414
000310 08 a2 ab 3e b6 8a 39 3e 44 38 f9 bd 9a 6f 8d bf
       0.33522058 0.1811932 -0.12168935 -1.1049683
000320 0e e2 b6 3d 4e 66 00 3f 90 e7 27 3f 5e 23 7f be
       0.08929835 0.50156105 0.6558771 -0.24915835
000330 a5 f3 50 be 38 b5 4e bd 93 e0 80 bf 00 95 bc 3e
       -0.20405443 -0.050465792 -1.0068535 0.36832428
000340 5c 70 0b 3e 46 19 e7 bf 10 53 27 be 1d 88 8a bd
       0.1361708 -1.8054588 -0.1634028 -0.06764243
000350 48 db 88 bf 90 09 04 bf a1 8e be bf 0f 49 a0 3d
       -1.0691919 -0.5157709 -1.4887277 0.07826435
000360 64 89 d7 3e 34 2d 50 be f9 bb 4a bd e8 62 4b 3f
       0.42097008 -0.20329744 -0.04949567 0.79447794
000370 02 ac 10 3f 1b 11 2e be 68 8a 2f 3f b2 3e ea 3e
       0.56512463 -0.16998713 0.68570566 0.45750958
000380 09 57 33 bf 4d b4 18 3e 4f 33 ec 3d 83 f1 e7 3e
       -0.7005468 0.1491253 0.11533224 0.45301446
000390 b2 8a 73 bd ba ba 21 be 14 15 c1 3c 95 84 78 be
       -0.059458442 -0.15793887 0.023569621 -0.24269326
0003a0 7f d2 0a bf 44 24 51 bc f7 93 96 be de b5 9a bf
       -0.5422744 -0.012764994 -0.29409763 -1.2086751
0003b0 c6 79 56 3d b4 c8 2a 3f 02 66 d0 3e 17 29 d7 bc
       0.052362226 0.667125 0.40702826 -0.02626471
0003c0 32 ab 0e 3f e4 80 a5 3d 67 46 fc bf f4 eb 2d bf
       0.55729973 0.080812246 -1.9708985 -0.6793816
0003d0 77 37 6c bf 9f 2d c4 3c ab f2 03 3f 89 e0 93 3e
       -0.9227213 0.023947535 0.51542157 0.28882244
0003e0 6a 0b ec bf ad 7b b8 3e 3f cb 1e 3f 19 80 af 3e
       -1.8440983 0.36031857 0.6202888 0.34277418
0003f0 95 84 4c 3f 8f ca fc 3e 11 3e 00 be 44 72 0c 3f
       0.79889804 0.4937329 -0.12523676 0.54861856

conv4_2.bias f4 [64]
000000 db a4 52 3f 80 9a 76 3e dd 15 bb 3d c5 f4 51 3e
       0.822828 0.24082375 0.091350295 0.20503528
000010 a5 c0 c4 3d 1e 58 2c 3b 24 5a 7e 3e 1f 13 11 3f
       0.096070565 0.002629764 0.24839073 0.566698
000020 9e 66 33 3e ea 1f ad 3e ca 26 c4 3e 35 24 1f be
       0.17519614 0.3381341 0.38310844 -0.15541156
000030 71 e2 88 bc 25 53 34 be 6f df fa 3d e7 1c 27 3f
       -0.016709538 -0.17609842 0.12249648 0.65278476
000040 d1 81 02 3f cc 1b 1c bd 14 c5 4d be ed bb 98 3e
       0.50979334 -0.038112447 -0.2009471 0.29830876
000050 70 de 90 bb f3 18 29 3f b7 df f5 3e a8 76 90 3c
       -0.004421048 0.66053694 0.48022243 0.017634705
000060 ae 10 bb 3d 93 1f d1 3d 2c b4 40 3e 11 e6 7d 3e
       0.09134041 0.102111004 0.1881873 0.24794795
000070 ba 28 37 be d4 b3 80 3e cc 14 78 3d ed 2b 70 3c
       -0.1788663 0.25137198 0.06056671 0.01465891
000080 c4 da 25 3d 30 59 46 be a9 b3 eb bd 69 ac b0 3e
       0.040491834 -0.1936996 -0.11508877 0.3450654
000090 9f 5d 25 3f 66 81 84 3d c1 b0 bc 3d fd c5 08 3e
       0.6459598 0.06469993 0.09213401 0.13356777
0000a0 01 c3 e7 3c 08 1d 99 3d 1c 8a b5 bc dd 55 33 bd
       0.028291227 0.074762404 -0.022160582 -0.043783057
0000b0 d6 67 1e 3f 95 55 8a 3d 78 ad 82 3d de 4d c5 bd
       0.6187719 0.06754605 0.06380743 -0.096339926
0000c0 b0 14 08 be b1 3f 74 bb 03 9a c6 bc 94 8d 35 3e
       -0.13289142 -0.0037269408 -0.02424336 0.17729789
0000d0 15 3d ce 3d 84 57 f6 bc 17 2e 08 3e c7 94 b2 3d
       0.10070244 -0.030071028 0.13298832 0.08719783
0000e0 d0 37 79 3e 4f 0f cd 3e b8 57 07 be 21 14 f5 3e
       0.24337697 0.40050742 -0.13217056 0.4786692
0000f0 88 2d 2f 3e dd 44 81 3e 70 46 aa 3e ec c6 93 bc
       0.17107213 0.2524785 0.33256865 -0.01803919

fc1.weight f4 [120, 224]
000000 cc 9c bf bc 64 4a 96 bc 07 8a 3b 3c 61 7b 77 bd
       -0.023390196 -0.01834602 0.0114464825 -0.060420398
000010 60 0e 98 39 4a 98 23 3d 3f 17 39 3c 55 d4 8a 3c
       0.0002900241 0.039940156 0.011297046 0.01694695
000020 ca 45 0d 3d f8 81 c8 3c 68 3a 0a bd 4c 19 a2 bc
       0.034490384 0.024476036 -0.033747107 -0.019787453
000030 ae 60 9b bd d2 a3 a5 bc dd 42 69 bd d6 55 3d bd
       -0.075867996 -0.020219717 -0.05694853 -0.046224438
000040 45 a8 43 3c 43 29 48 3c 6e f7 6f 3d 9a 22 6e bd
       0.011941974 0.012216869 0.058585577 -0.058138467
000050 d9 a6 f4 3c bc 21 7c bd aa f4 33 3d 5e ab d2 bc
       0.029864715 -0.06155561 0.0439345 -0.02571648
000060 c0 e3 09 3b 34 39 c2 3c fc 9e cd bc 10 5b 80 bd
       0.002104029 0.023708917 -0.025100224 -0.06267369
000070 87 86 34 bd a0 6f 3e 3c 52 af 48 bd 90 0f 1c bd
       -0.044073608 0.011623293 -0.048995323 -0.03810078
000080 50 a7 f9 3c 90 59 c5 3c 14 ec 1c 3d f4 de 2e 3c
       0.030475289 0.024090558 0.03831108 0.010673273
000090 e0 ae c3 bc 0e f4 38 bd c4 ec 32 3d 56 77 76 bd
       -0.023887098 -0.045154624 0.04368283 -0.0601724
0000a0 8f 32 17 bd 4c cc 4a bc 66 8a 3d bd 97 20 5c 3d
       -0.03691345 -0.01237781 -0.046274565 0.053742018
0000b0 e0 2e 68 bd 9a 4c 62 bc a1 2a 10 bd 1c 5e 53 bc
       -0.05668533 -0.013812209 -0.035196904 -0.012900855
0000c0 b7 6a 0f bd d8 0f 89 bc d0 77 28 3d 9c 2d 09 bd
       -0.03501388 -0.016731188 0.041129887 -0.033490762
0000d0 ee 96 84 3c 27 98 4e bc af 24 1e 3d 7e 90 9d 3b
       0.01618525 -0.012609518 0.038609203 0.0048084846
0000e0 dc 1e a7 3c a3 63 5c 3d f1 5d 61 3c 68 52 ff bc
       0.020400457 0.05380596 0.0137553075 -0.031167224
0000f0 48 6c e9 3c 48 e9 26 bc 2e 21 82 bd f8 b4 81 bc
       0.028494015 -0.0101874545 -0.06353985 -0.015833363
000100 96 a0 a3 bc bc 16 3f bd 74 7d 65 bd 60 2e e6 3c
       -0.019974034 -0.04665254 -0.056027845 0.028098285
000110 5e 9d 22 3d 20 b4 4d bc 09 e4 21 3c d6 b9 1d 3d
       0.03970086 -0.012555152 0.009881028 0.038507305
000120 76 6c 2d 3d 4b d2 bf 3c 4a ce a1 3c 9c f2 f6 3b
       0.042339765 0.023415705 0.019751687 0.0075362455
000130 d9 77 13 3d 80 18 08 bd 9a a5 c1 bc cc 1b e9 bb
       0.036002968 -0.03322649 -0.023638535 -0.0071139093
000140 9b 58 59 bd b2 54 f2 bc c5 f2 83 3d 44 db 12 bd
       -0.053063016 -0.029581401 0.06442789 -0.03585364
000150 ca fb 6c 3d 90 4b 72 bc 9a cb 2f 3d 58 b8 9d 3c
       0.057857312 -0.014788523 0.04291878 0.019252941
000160 12 d6 db bc 8c 4a 05 bc ea bc 34 bd 78 7d 90 bd
       -0.026835475 -0.008135449 -0.044125475 -0.07055181
000170 2d a8 05 3d 16 e1 ea bc 28 c2 7c bd fe 9f 1d 3c
       0.032631088 -0.028671782 -0.0617086 0.009620665
000180 da 59 55 bc ea c4 65 bd c4 0d 20 3d 96 da c1 bc
       -0.013021911 -0.056095995 0.039075628 -0.0236638
000190 94 53 47 3d 30 83 25 ba 2a 41 a4 bc dc 89 07 3d
       0.04866369 -0.0006313799 -0.020050604 0.033090457
0001a0 10 65 87 bc 7c 6d 81 bd 5a 40 7d bc ed c9 43 3c
       -0.016527683 -0.063197106 -0.015457237 0.011949998
0001b0 b3 88 82 3d 20 2f fc bc 09 6d 7c bd 7a d2 15 bd
       0.063737296 -0.03078419 -0.06162742 -0.03657768
0001c0 32 f0 59 bd c2 71 51 bb 40 42 73 3b 40 e1 0f 3d
       -0.053207584 -0.0031958674 0.0037118345 0.035126925
0001d0 61 91 a8 bc 68 8d 27 3d a5 5e 8d bd db 3b 6b bc
       -0.020577135 0.04090634 -0.06902818 -0.014357532
0001e0 a4 56 35 bd 78 e7 18 3d 5b 74 59 3d 28 41 15 bd
       -0.04427208 0.03733012 0.05308948 -0.03643909
0001f0 41 e5 50 3d da 7b 0e 3c 74 58 00 3d 76 68 79 3d
       0.050999884 0.008696521 0.031334355 0.060890637
000200 e1 06 83 3d 56 3c 17 3d 65 cb 2a 3d 56 4d 44 bd
       0.063977964 0.036922775 0.04169788 -0.047925316
000210 bd e7 7b bd 7f 9d 33 bd 18 1a 71 3c 94 12 19 bd
       -0.0615003 -0.04385137 0.014715694 -0.037371233
000220 e0 0d 48 bc 16 2e a5 3c ef e8 0a bd 6e 6e 19 3d
       -0.012210339 0.020163577 -0.03391355 0.03745883
000230 ce 1a 13 3b 08 bb 80 bc a5 4b 28 3c 66 f0 3d bd
       0.0022446397 -0.015714183 0.010271941 -0.04637184
000240 e0 6a 26 bb a6 4e 1c bc c4 c0 13 3d c6 de 12 bd
       -0.0025393292 -0.009540236 0.036072508 -0.035856985
000250 1e 2a fe 3b 54 93 3d bc 1e 7d 61 3d a7 2e 2a 3d
       0.0077564856 -0.01157077 0.05505096 0.041548397
000260 b2 32 c0 bc 3b e7 44 3d 60 73 46 3b 38 b5 72 bd
       -0.023461673 0.04807208 0.0030281171 -0.059254855
000270 40 dc 7f bd 8e 3e 14 bd 31 91 4e bd 91 fe 0d bd
       -0.062465906 -0.03619247 -0.050431434 -0.0346666
000280 18 5e 2d bd 5e 59 37 3c 64 07 b8 bc e7 36 7f bd
       -0.042326063 0.01119074 -0.022464462 -0.06230822
000290 44 85 b2 3c ec c5 bf 3b e2 5a 44 bd 7d 60 64 bd
       0.021792062 0.0058524515 -0.047938235 -0.05575608
0002a0 99 9d 0d 3d 8f c2 1f bd 2a 73 fd 3c 4a 3c 7a bc
       0.034574125 -0.039003905 0.030938704 -0.015273163
0002b0 a8 b9 60 bd 98 d1 18 bd f6 7d 72 bd 4e 19 6f bd
       -0.054864556 -0.03730926 -0.059202157 -0.05837374
0002c0 25 8f 35 bc c0 ae 0e 3b 18 25 60 3d 32 db 8e bc
       -0.011081492 0.002177164 0.054722875 -0.017438505
0002d0 84 4e aa 3c cf 4d 89 bc 19 00 42 3c 26 ea 16 bc
       0.020789392 -0.016760735 0.011840844 -0.009211099
0002e0 43 8c 03 3c 2a 94 be 3c 16 4c 2d bd 22 6a 57 bd
       0.0080290465 0.02326401 -0.04230889 -0.05259145
0002f0 0a 64 9c bd c0 42 13 bc 94 da a6 3c 80 30 54 3d
       -0.076362684 -0.008988082 0.020367898 0.051804066
000300 08 50 df 3c 28 bd 6c 3b 9a 09 17 bd 5c 4b 53 bb
       0.027259842 0.0036123488 -0.03687439 -0.0032240963
000310 ae 80 9c bd 56 54 f4 bc 58 2f 9f ba 90 e7 a8 3b
       -0.07641731 -0.02982537 -0.0012144847 0.0051545575
000320 92 d3 56 3d 90 7e 14 3b 9a 11 80 bd 62 29 15 bc
       0.052447863 0.0022658445 -0.06253357 -0.009104105
000330 d6 47 dc bc 4b 4a 1d bd a5 db 7a bd d8 4d eb 3c
       -0.026889723 -0.03840093 -0.061244626 0.028723642
000340 6c 33 d5 3c 5d 72 3b bd d8 ee 3d bd 38 3e 29 3b
       0.026025496 -0.045763362 -0.046370357 0.0025824439
000350 49 2c 64 3d ae e1 da 3c 00 e9 3a bc 84 17 88 bd
       0.055706296 0.02671894 -0.011408091 -0.0664511
000360 8a ff 64 3d 95 47 56 3d 8c 66 64 bc 11 9c 9b bd
       0.055907764 0.05231436 -0.013940465 -0.07598127
000370 d4 ec 1f 3d 24 e3 f2 3c 02 ff 0c 3d a2 25 80 3c
       0.039044216 0.029649325 0.034422882 0.015642945
000380 d2 65 e1 bc bb c6 7c bd ec c0 59 bc c8 09 9d bd
       -0.027514372 -0.06171296 -0.013290625 -0.07667881
000390 68 29 24 bd 8a f3 1e 3d a2 0d 14 3c e1 0a 89 bd
       -0.04007855 0.038806476 0.009036453 -0.06691528
0003a0 6e 29 ab bd f7 59 f9 bc b2 49 97 bd 87 a0 ae 3c
       -0.083575115 -0.030438406 -0.07387103 0.02131678
0003b0 c0 58 17 3b c5 d5 80 bd b9 17 2d 3d 84 11 c4 3c
       0.002309367 -0.06290773 0.04225895 0.023934133
0003c0 75 41 a2 3c 51 e0 46 bd 28 ac 17 3c 85 3b 70 3c
       0.019806603 -0.04855377 0.009257354 0.014662628
0003d0 d2 ca a1 3b 12 45 52 3d d0 3e 99 3c 6b 03 a9 bd
       0.004937508 0.0513354 0.01870671 -0.08252605
0003e0 86 1f 63 3d 48 b9 27 bd 8e 9b 40 bd 8d 44 21 3c
       0.055449985 -0.040948182 -0.04702335 0.009843004
0003f0 b2 f7 f9 bb 0e 37 57 3d 98 e2 94 bd 26 e9 fc 3c
       -0.0076284045 0.05254274 -0.07269782 0.030872893
