Model/SGD_ajusted_net.pth (torch, 232676 bytes, 21 tensors)

conv1_1.weight f4 [32, 1, 3]
00000000: 33ef 523e 0591 f5be b7ea d6be 5e45 8e3e
00000010: 7be1 6ebe 3c55 573e 4857 593e a044 e43c
00000020: 4015 6bbd a3ee 0b3e 4052 f33e 2ab9 c7be
00000030: 3e98 10bf cc19 8fbe 6768 9e3e 7848 abbe
00000040: 5188 84be b4f6 f6be 6952 d33e 9ae5 183e
00000050: f80f 193e ad20 e63d f8ea 00be e3e3 a13e
00000060: afa9 013f 9c08 06bf b5ab 0ebf 9d95 01bf
00000070: d80d 4ebc cf4f 743e c454 023d b60f 28be
00000080: afa9 aa3e 79a4 ab3e 5fa0 36be a483 a93e
00000090: e89f 043f fa4c fe3e a468 d4be c4fa 7d3e
000000a0: cb63 e53e 9731 87be 9366 d93c fdb8 9e3e
000000b0: c4ca d8be 7f66 bf3e 3ef1 12bf 0159 f4be
000000c0: f8f5 e93e 6c8a 89be 2093 56bb 7669 433d
000000d0: 7cde 2dbb f083 9abd 4cbc 873e 7036 aebe
000000e0: b7e0 01bf 6c7a f63e 2685 ebbd e6fb f93d
000000f0: 8031 2fbe a1ce f2be db68 d73e faee a8be
00000100: dfe0 223c 693b 05be 0eb4 e53e f6dd f1be
00000110: e78a e43e f263 ee3c 7c91 febd 3de7 883e
00000120: 4657 f83d 84cb 13ba 55e4 7cbe e0fe b3bc
00000130: 8c16 603e 00c6 16bb db8e f5bd 2bb9 a5be
00000140: 2eec e3be e1b0 07bf 6ed0 6a3e 7339 54be
00000150: 2cba 47be 8ecc 0cbe 3124 50be 154c 113f
00000160: 91e1 a5be cde5 95be 40c3 d23e 6878 0e3e
00000170: 659b 31be 6879 84bd 1023 a9bd 70e9 2e3d
0.2059906 -0.47962204 -0.41975948 0.27787298 -0.23328201 0.21028608 0.21224701 0.027864754
-0.057393312 0.13665251 0.4752369 -0.39008456 -0.56482303 -0.2794937 0.30939028 -0.33453727
-0.2588525 -0.48235095 0.4127381 0.14931336 0.14947498 0.11236701 -0.12589633 0.31619176
0.5064954 -0.52356887 -0.55730754 -0.50618917 -0.012576543 0.2385857 0.03181912 -0.16412243
0.33332583 0.3352392 -0.17834614 0.33108246 0.518065 0.49668103 -0.41486084 0.2480269
0.44802698 -0.26405022 0.026538169 0.3100051 -0.42342198 0.37382886 -0.57399356 -0.47724155
0.45695472 -0.2686342 -0.0032741502 0.047707997 -0.0026530316 -0.07544696 0.26510847 -0.34025908
-0.5073351 0.48140275 -0.115000054 0.12206249 -0.17108727 -0.4742327 0.42072186 -0.32994825
0.009941309 -0.13010944 0.44863933 -0.47239655 0.44637224 0.029100392 -0.12430093 0.2673892
0.12126021 -0.0005637931 -0.24696477 -0.02197212 0.21883601 -0.00230062 -0.11990138 -0.32367834
-0.44516128 -0.5300427 0.22931072 -0.2072504 -0.19504613 -0.13749906 -0.20326306 0.56756717
-0.32398656 -0.29276887 0.4116459 0.13913119 -0.17344435 -0.06468469 -0.08258641 0.042703092

conv1_1.bias f4 [32]
00000000: c910 ed3c 1cd6 e5be 1347 a2be 4129 0f3f
00000010: 3127 0dbf a7ff 0ebd 31bc 9c3d 3513 1f3e
00000020: 8fc0 083f 5a4c 8b3e 350c d5be b428 0a3e
00000030: adf2 9cbe c1da c9be 8249 f2be f296 8b3e
00000040: 413d b93e 3699 ed3c 6a29 013f 2942 ea3e
00000050: 8760 50be 986b a7bd bb57 11bf 4e9e b73e
00000060: 8f30 96be f027 b1be 2b0f 9e3e 4e90 49bd
00000070: 1818 8dbe 12ff cbbe b141 d53e 53e1 84be
0.028938668 -0.44889915 -0.3169485 0.55922323 -0.55137926 -0.034911778 0.07653082 0.1553467
0.5341882 0.2720669 -0.41610876 0.1349209 -0.30653897 -0.39424708 -0.47321707 0.272636
0.36179546 0.02900372 0.5045382 0.457536 -0.20349322 -0.08174819 -0.5677449 0.35862964
-0.29333922 -0.34600782 0.30870947 -0.049209885 -0.27557445 -0.3984304 0.4165168 -0.2595316

conv1_2.weight f4 [64, 32, 3]
00000000: 58d3 37bd 961a adbc 5c2c cdbd 436f 56bd
00000010: 3cb3 4c3d c64f 95bd f27e 2cbd 10d3 e0bb
00000020: 709b d9bb ded3 433d 912b 133c 6cc8 523d
00000030: fc61 703c db6d ccbd 6af7 a1bc 69a0 e4bc
00000040: 955c 45bd 8063 02bd 3ce6 db3c 0822 38bd
00000050: e5dc 903d ae68 89bd 7c10 d93c ce08 913d
00000060: 7c64 473d 286a c9bd 374a 813d 8f1a ddbc
00000070: cda9 bb3d d464 63bd 20f3 c8bd 81ca f138
00000080: 2367 c33d 40b1 8d3d 14ee c43d befa 1cbd
00000090: 2cec 103d 7f55 193d beb7 b23d 34e4 fbbb
000000a0: 33a7 3fbd a1e3 25bb ce26 053d 0d0a ac3c
000000b0: ea56 0e3d 9dbd 833d 4b90 4a3d cacc 1c3d
000000c0: 27e2 df3c eefc 1e3d dbd1 973c 8c83 3fbd
000000d0: e602 81bd 2715 6f37 d797 06ba ee2c 043d
000000e0: 1e20 93bd 8f08 e1bc 6e52 963d dc8e 12bd
000000f0: de39 953d 390e 6cbc 6fe8 3e3d 27be d7bc
00000100: c850 87bd 8364 8abc c836 8fbd 16dc 383b
00000110: 4cb2 9bbd 02a0 2ebd 2bfc 1bbd e24c 8e3c
00000120: 2059 1b3c c1d7 6d3d 9be3 3ebc d44f 2a3d
00000130: b93b 6cbd 987b ce3c ab21 a33d 6ecb 36bd
00000140: f2b9 bf3d f653 ae3a 0f0d bf3c b277 7abc
00000150: 7b11 673d d161 05bd 69e4 19bc 337e b7bb
00000160: 815b c83c c11a c03c d5b3 6bbd d3e7 10bc
00000170: 0779 57bb 3d1b 28bd a41d a9bd 78bd 9d3d
00000180: 4e42 06bc e0c9 c6bd 9e3d 51bd 5414 453d
00000190: d0f7 bfbc 9eee 5dbd 15b9 d0bd 0617 a1bd
000001a0: 3dcd c5bd a036 c1bd e241 c0bd 6512 87bd
000001b0: 5397 35bb 69a4 1cbc f855 3c3d 41e9 d33d
000001c0: e252 ff3c e687 493d 3795 a8bd f0b8 c63d
000001d0: 0c31 59bd 0cdb 383d bb3c dabc 4712 2bbd
000001e0: 4cbe b33c 413c 983d 9363 8cbd 8742 a43c
000001f0: d33d bcbd 1061 69bd 68d4 dcbc 933a 4dbd
00000200: cfd6 833d d52e d0bd 0efa 99bd 81ae 9fbd
00000210: b6e7 c2bd 25ee b3bd 9c61 69bd 88c5 943c
00000220: 089f cdbd c2ff 653d 3845 ffbc 1253 bcbd
00000230: 9d1d 8e3d 8292 b73d 525a 2c3c f289 c63b
00000240: e5d9 a23d ad61 b7bd e0d9 373c 564c 9bbb
00000250: 7496 9abd 0ef1 1fbd 3e24 bc3c 9893 58bb
00000260: 5c82 dfbc c102 bbbd 9911 a63d 3735 863d
00000270: 65ae 3c3c 3dc0 08bd e6b8 713c c7c3 973d
00000280: a28c 9cbd 3ed3 273d 2e3d 34bd 90ec 863c
00000290: 7ef5 ae3d 7ecb 8fbd 7c3f f9bc 2328 1c3c
000002a0: bebe 68bd f7b6 23bc fbcd 99bd 3a01 09bd
000002b0: 88c4 81bd c843 e43c 3f3e bdbc 3d40 c63d
000002c0: 0b40 cf3d 3103 09bd 71ad 863d 9f58 a93d
000002d0: af69 9bbb 2d36 5f3d 6ca5 b43d f72b a7bb
000002e0: b2d2 8ebd a868 2dbd b279 a43d b5ec adbd
000002f0: 126b 63bd a8b6 5b3c 5754 60bd f092 03bd
00000300: faf3 bfbc 5dab 09bd de2a 963c 120f b23d
00000310: 6854 9fbd 0e1d fbbc 84a3 263d 4fef 3bbd
00000320: e0d6 af3b 2588 cfbd 70aa 2ebd 7499 9d3d
00000330: 321f 1ebd 51e2 a73d c3b5 23bd e7dc 203c
00000340: e4bc b3bd 0656 13bd b3e9 9fbd 387a 213d
00000350: 83ae af3d 1ab1 aabd 31b7 cd3d 6843 913d
00000360: 4519 abbd 5ebe 24bd 36c4 cc3d 5daa b03d
00000370: 305c a7bc 9095 a43b fffa 95bc bb8d 8dbd
00000380: 2daa 58bd e236 d23a c56f 493d 5be1 4ebd
00000390: 409c 01bd 6265 9e3b 866c 18bd 342e c6bd
000003a0: daf6 7dbb 5f26 b2bd e6bc 9bbd aa87 aebd
000003b0: 5254 66bd 97d3 91ba e86f 9c3d 8917 9abc
000003c0: adbb c4bd 8bd8 cdbd 7cb3 b73d 4d45 acbd
000003d0: 371e 2dbd b06d 583d 448c 33bd d361 683d
000003e0: 6f41 d8bc c535 c7bd f865 59bd 5497 a3bd
000003f0: 02b1 88bc 8c11 16bc bce8 b83d 4fc5 c23c
-0.044879287 -0.021130841 -0.100182265 -0.0523522 0.04997562 -0.07290606 -0.042113252 -0.006861098
-0.006640844 0.047809474 0.008982555 0.05146067 0.014671799 -0.09981891 -0.019771297 -0.02790852
-0.048183996 -0.03183317 0.026843183 -0.04495433 0.07073382 -0.06709419 0.026497118 0.070817575
0.048679814 -0.09834701 0.063129835 -0.026990203 0.09163246 -0.05551608 -0.098119974 0.00011529495
0.09541156 0.069185734 0.09615722 -0.038325064 0.03538148 0.03743505 0.08726452 -0.007687116
-0.046790313 -0.002531268 0.03250771 0.021000886 0.034750856 0.0643265 0.049454015 0.03828124
0.027329518 0.03881543 0.018532684 -0.046756312 -0.06299381 1.4250435e-05 -0.000513432 0.03226941
-0.0718386 -0.027469901 0.07339941 -0.035780773 0.07286428 -0.014407688 0.046608385 -0.026335789
-0.06607205 -0.01689363 -0.069928706 0.0028207353 -0.07602367 -0.042633064 -0.038082283 0.017370645
0.009481698 0.058067087 -0.011650945 0.041580036 -0.057674143 0.025205418 0.07965406 -0.0446276
0.09361638 0.0013300169 0.023321657 -0.015287327 0.056413155 -0.032563988 -0.009392836 -0.005599761
0.024457695 0.023450257 -0.057544548 -0.008844334 -0.0032878534 -0.0410416 -0.082576066 0.07702154
-0.008194519 -0.09706473 -0.051084153 0.04811509 -0.023433596 -0.05418264 -0.101915516 -0.078657195
-0.09658287 -0.09434247 -0.09387566 -0.06595305 -0.0027708604 -0.009560683 0.045980424 0.10347224
0.031167451 0.04920187 -0.082315855 0.09703243 -0.05302529 0.045130774 -0.026640287 -0.041765478
0.021941327 0.074333675 -0.0685493 0.020051254 -0.091914795 -0.05697733 -0.026956752 -0.05010469
0.06437456 -0.101651825 -0.07518397 -0.07796956 -0.095168516 -0.08785657 -0.056977853 0.018160596
-0.100400984 0.056152113 -0.031160936 -0.09195532 0.06939242 0.08963491 0.010519581 0.006058925
0.07951716 -0.08954177 0.011221379 -0.0047393246 -0.07548228 -0.039048247 0.0229665 -0.0033046957
-0.02728384 -0.09131385 0.08108825 0.06553119 0.011516188 -0.033386458 0.014753556 0.074103884
-0.07644011 0.04097294 -0.044003658 0.016470224 0.08542918 -0.07021235 -0.03042578 0.009531054
-0.05682253 -0.009992353 -0.07509991 -0.033448435 -0.063363135 0.027864352 -0.02310097 0.09680221
0.10119637 -0.03345031 0.0657605 0.08268856 -0.004742823 0.054495025 0.08820614 -0.0051016766
-0.06973781 -0.042336136 0.08031024 -0.08492414 -0.055522032 0.013410248 -0.054767933 -0.032122552
-0.023431767 -0.03361069 0.018330988 0.08694281 -0.07779771 -0.030653503 0.040683284 -0.04588252
0.0053661913 -0.101333894 -0.04264301 0.076952845 -0.03860397 0.08197463 -0.039968263 0.009818292
-0.087762624 -0.03597071 -0.078082465 0.039423198 0.08578207 -0.08334561 0.100447066 0.07092935
-0.08354429 -0.04022061 0.09998362 0.08626244 -0.0204297 0.005022712 -0.01830816 -0.069117986
-0.052896667 0.0016038085 0.049178857 -0.050507884 -0.031643152 0.004833863 -0.03721287 -0.09676781
-0.0038751871 -0.08698725 -0.07604389 -0.085219696 -0.056232758 -0.0011125681 0.07638532 -0.01881005
-0.09606109 -0.10051068 0.08969781 -0.084116556 -0.042265143 0.05283898 -0.04383494 0.056733917
-0.026398389 -0.097270526 -0.05307576 -0.07987848 -0.016685966 -0.009159457 0.090287656 0.023775725

conv1_2.bias f4 [64]
00000000: 2d97 3ebd 9ca2 9cbc 39a3 b33d 13bf 63bd
00000010: af4c a03d 1723 963d b785 8a3d e6f8 2c3d
00000020: d221 653d fbc8 a23d 8fac 9cbd d089 843c
00000030: 445f c43d 88f1 9a3c f854 93bb 660c 6f3c
00000040: b92e 46bc dc12 adbd 82af e8bc e8e0 67bd
00000050: 80b2 2abb e35e c63d 4cee c0bd ac91 253d
00000060: aa5a 6b3d 5feb efbc 8c78 99bc 4311 ec3c
00000070: 7e3e 32bd e0aa 6fbd 4ec9 aa3d 5322 abbd
00000080: bc3b 9ebc be78 bdbd fb33 91bc dd79 9a3d
00000090: 1752 1ebd 8c6f fdbb 8f45 a4bd b189 99bd
000000a0: 8065 ab3d 0941 af3d 7b19 8fbd fd78 bcbd
000000b0: 22b3 463d eada 13bd b1fe dbbc 4406 a639
000000c0: 3090 a23c 72f6 8bbc bb8e 953d 869c 2dbd
000000d0: 4cee 703d 1a15 b73d 996b 4f3d fc24 883d
000000e0: 5e08 853c 25af cc3d 5555 cc3b 6405 7f3d
000000f0: ef53 c73d a0f4 443c 96db a3bd 043d 3cbd
-0.04653089 -0.019120507 0.087713666 -0.055602144 0.07827126 0.073309116 0.06763785 0.042229556
0.055940457 0.0794849 -0.076501004 0.016178995 0.09588483 0.018914 -0.004496213 0.014590358
-0.0120961005 -0.08450863 -0.028404001 -0.05661097 -0.0026046336 0.09686067 -0.094204515 0.040422127
0.05745951 -0.029287038 -0.018734239 0.028816825 -0.04351663 -0.05851257 0.08339177 -0.08356156
-0.019315593 -0.09251545 -0.017724982 0.07542775 -0.038652506 -0.0077342447 -0.0802108 -0.07496966
0.08368969 0.08557326 -0.06987282 -0.09202764 0.048510678 -0.036097445 -0.026854845 0.00031666656
0.019844145 -0.017085288 0.07302614 -0.0423856 0.058821008 0.08939572 0.050639722 0.06647679
0.016239341 0.09994344 0.0062357583 0.062261 0.09732806 0.012021214 -0.08000867 -0.045956627

conv2_1.weight f4 [32, 1, 3]
00000000: 7007 8dbe 617a 4abc b967 61bc caf6 fcbe
00000010: 2509 9cbe 41d2 033f 7fcf 9cbe 96c2 373e
00000020: f4fe 0d3e f950 32bd bed9 07bf 9f56 473d
00000030: 1c04 1abd 0a8b 4f3e 2f3f 04bf fefb 4e3d
00000040: 528e 153e 7801 d3be 4d56 48be c59f 49be
00000050: f416 e43e ff48 8dbe ffd3 33bf b506 9c3d
00000060: 9b25 973d 8cce 15bf ed9f 07bf 85f7 11be
00000070: 2f76 173d 94e9 5d3d d688 c4be fd43 c13e
00000080: 973f cd3d 96f1 213d 32a6 b23e ff6a d53e
00000090: f9da 63ba 7629 04be e7ac 723b 0112 c6be
000000a0: bcd2 3a3e 784e 03bf ceec 813d 2023 293e
000000b0: 948f 22bf ba34 00bc 4463 80be 685c f83d
000000c0: 48e6 983d fb99 a73e adea fd3e a36e cdbe
000000d0: d4e8 953e e55f 2bbe 98f6 a63d bce2 fcbe
000000e0: 59bc 1bbf fc59 f3bd 7fe7 0c3f 0858 b1be
000000f0: 38b2 a83c 8556 b93e 6303 0fbf 4097 8dbe
00000100: dbdb 9bbc e9a0 003f 39ff 05bc ccc8 f9be
00000110: 37b8 553e 0ef4 17bd 9fa8 633e 47be b6bd
00000120: 2c92 e9be 0acc 38be 6ba5 c7bc 9300 1b3d
00000130: 07d2 043f db85 c33e ca11 91be b5eb eb3e
00000140: b8c9 64be 675d d5bd 0284 5c3e ecb0 e7be
00000150: 4430 edbd 30a6 0cbf bcf5 b53e 84f9 41be
00000160: b537 a53e 6438 21be 7de9 c1be 769f 1e3e
00000170: 1fe2 e7be 8599 1bbd 2844 2abf f424 043e
-0.27544737 -0.012358279 -0.01375764 -0.49407035 -0.30475727 0.51492697 -0.30627057 0.17945322
0.13866788 -0.043534253 -0.53066623 0.048666593 -0.037601575 0.20267883 -0.5165891 0.050533287
0.14605072 -0.41212058 -0.19564171 -0.19689853 0.44548762 -0.27594754 -0.70245355 0.07618467
0.073802195 -0.5851829 -0.529784 -0.14254577 0.036977943 0.054177836 -0.38385648 0.37747183
0.100218944 0.039537035 0.34892422 0.41683194 -0.0008691992 -0.12906441 0.0037029327 -0.3868561
0.18244451 -0.5129161 0.06343995 0.16517305 -0.6350033 -0.007825071 -0.25075734 0.12127
0.07465798 0.32734665 0.49593106 -0.40123472 0.29279196 -0.167358 0.08152503 -0.49391735
-0.6083427 -0.118823975 0.55040735 -0.34637475 0.020592794 0.36198822 -0.5586454 -0.27654457
-0.019025734 0.5024553 -0.008178526 -0.48786008 0.20871054 -0.037097983 0.22232293 -0.08923011
-0.45619333 -0.18046585 -0.02437087 0.037842344 0.51882976 0.3818806 -0.28333884 0.46078268
-0.22342575 -0.10418206 0.21534732 -0.45252168 -0.115814716 -0.5494108 0.35539043 -0.18942839
0.32269064 -0.15744168 -0.3787345 0.15490517 -0.45289704 -0.037988205 -0.6651025 0.12904721

conv2_1.bias f4 [32]
00000000: 409b c6bd 0e15 0c3f d10f 47be 5453 dfbe
00000010: 6c15 c2be 2fd6 dcbd 4c2a 00bf 19c5 d23e
00000020: 2b93 0b3f 22ea 343e 5611 e03c 3de7 8ebe
00000030: 9c3e d53e a2fa b0be d669 11bf 8619 c83c
00000040: fb72 85be 8d76 f3be d32a a9bd 95fa 303c
00000050: c780 04bf 0b6e e9be 9dde b63d 15d3 f93e
00000060: 0aed f53e e0a2 e9be 9abc 48bb a8d7 87be
00000070: 9c18 923e a6ee 4dbe ffb1 ae3d 8a34 833e
-0.0969758 0.54719627 -0.19439627 -0.43618262 -0.3790697 -0.1078304 -0.5006454 0.41166
0.54521435 0.1766744 0.027352016 -0.27910796 0.4164933 -0.34566218 -0.5680212 0.024426233
-0.26064286 -0.47551385 -0.08260121 0.010801931 -0.51759 -0.4559177 0.08929179 0.48793855
0.4803241 -0.45632076 -0.0030629993 -0.2653172 0.285344 -0.20110568 0.08530044 0.25626022

conv2_2.weight f4 [64, 32, 3]
00000000: 80cd 05bd b8e6 b2bc b819 743d 562d 1d3d
00000010: 7227 60bd f146 493d 50a8 bbbd 7ebc 0fbd
00000020: 99d6 853d c182 bbbc 3199 ce3c e82e 923d
00000030: 65e2 d8bd 6b80 5d3d 5dd6 e53c f154 0e3d
00000040: fd70 dcbc 9b5e 093d 124f 6cbd e730 053d
00000050: f052 bbbd d5a1 b5bd 061a c2bc feca 51bb
00000060: e6b3 bebd 4101 9b3d 0efe babd 971e 6abc
00000070: b67b a6bd 1243 193d 647d c2bd 45f4 1cbd
00000080: 4904 5ebd b563 593c e66f 0b3d 826a 933d
00000090: 6c9a 3fbd dbb0 023c f56e 953d 0982 52ba
000000a0: e657 8cbd 7292 d9bc 5ff1 83bd c084 14bd
000000b0: 8e12 04bc 946e a7b8 6c28 3dbd 2ffd 35bd
000000c0: fe9f c3bd 51ff f0bb bbfb 99ba 5001 c5bd
000000d0: 7897 19bd 1782 bc3d 5f7b c43d 6825 2f3d
000000e0: 974f d13c 6065 1ebd 3f1f acbd 2d21 d2bb
000000f0: aa6d 22be 0282 5ebd 9c85 5d3d 0c7b 513d
00000100: 859c 043b 0a8a b9bd b760 3b39 f1b7 953d
00000110: c494 5abd 7e28 d63c 7623 81bd 2ac4 b0bd
00000120: 682a 84bd d45d 3cbc 3982 a2bd da18 5dbd
00000130: 2628 9e3c 6942 94bd 56ce 6a3d fa3e 923d
00000140: 5cb4 293d c988 bf3d 9720 393c 2d5f 4e3d
00000150: 9117 72bd d310 40bc 23d1 96bc 155f a83d
00000160: 4d43 58bc 298e ca3d 35f7 ac3c 7828 ab3c
00000170: 4c7b 3ebd 22f5 063a e037 b33d b5cb f6bc
00000180: 5888 84bd 5a99 61bd 9251 18bd 6700 c73d
00000190: 2be9 1bbd 6f9a 30bd a6ba f13a 2ad2 83bd
000001a0: e1d7 8c3d 8b49 de3c 5d4d d6bd 2578 cbbc
000001b0: 8c5e e33a c447 a8bd 6d0c 8d3d 69e5 513d
000001c0: 81fb 92bd 5214 e2bc b22e 9f3d e79c dc3c
000001d0: 3fd6 e83c 6eee 223d 1b45 f53c 7565 c43d
000001e0: 97c4 1a3b 2540 893d 4b53 8d3d a0f2 99bc
000001f0: c7b3 b6bd 2e88 1c3d edec 483c 6739 6c3d
00000200: 44f6 1b39 9e43 9f3c f978 40bd acfc c4bd
00000210: 535a 33bc 4e05 ca3d 9c1a 913d b194 153d
00000220: 11c6 ca3c c7bd a53d a770 4c3d 99fc 233d
00000230: 2920 863c 35f3 debd 06f0 17bd e0d9 253c
00000240: 4541 aabd d826 5c3d 1075 493d b8c4 67bd
00000250: 7361 f1bc 67f9 0abd 714e c4ba 6635 0a3d
00000260: 339d 9ebd c547 18bd 554c 793c a6e0 a63d
00000270: 2396 23be 4487 b9bd fd86 143d 822d 873d
00000280: 49b1 973d 4524 8f3c ac2c 673d 107a d7bc
00000290: dff8 a6bd f0f8 b0bd 68c3 76bd 3ae6 5c3d
000002a0: 8d69 3c3c 514f d1bb 4ec3 163c f910 e23b
000002b0: 6cb4 8dbc 5b35 6b3c 934e 8f3c 6d50 273d
000002c0: 8121 52bd b688 d2ba 1d5a aa3d ec47 c23d
000002d0: abaa 0c3d 0c46 aebd 6776 62bd e4d7 2abd
000002e0: 9dcf 653d 4c61 92bd ddce b4bd 50fb 8dbd
000002f0: b1f4 1dbd 226b 82bd 78f7 6f3a 561d 85bd
00000300: a53e 173b 4f24 a3bc 2a8a 093b 7eee 2a3d
00000310: c7bf 74bd b86a b83d d5cb c93d ccf8 a13d
00000320: 2a66 4a3d 5e95 bf3d ae20 323d 53ef 963c
00000330: 8796 b23d 89ec 57bd 5f51 063d 6659 bbbd
00000340: c85d 79ba 145b ad3d 4c98 833d 30a3 b1bd
00000350: 5b63 60bb c594 773d 9ecc 8fbd 27a1 1cbd
00000360: 23bc 28bd d37d 46bc c2f0 c3bc adac 9bbd
00000370: a55e 8a3d 872d 1ebd 9a69 d4bd e080 b53d
00000380: 5d2b 17bc 4600 a0bd 5bac 1ebd f635 22bd
00000390: c2d8 903d 123a 8cbd b932 acbd 90c6 993d
000003a0: 2267 e93b a88d 4f3d 41ba c83c d8e8 603d
000003b0: b472 dabd 4b6f 8b3d 4556 c63d 6b11 283d
000003c0: c8ce dc3b 2456 d8bd 0e86 0ebd eed5 8c3d
000003d0: c1d9 223d 9b2c 8b3d 7fe3 4c3c e75f 63bc
000003e0: b6c3 4e3d d902 6f3c dfce 903d 2616 b6bd
000003f0: 8219 3ebd 1466 dcbc 86b6 783a 0cc0 aa3d
-0.032666683 -0.02183853 0.05959484 0.038373314 -0.054725118 0.04913992 -0.091629624 -0.03509187
0.06535072 -0.022889497 0.025219532 0.07137853 -0.10590056 0.054077547 0.028056318 0.034748975
-0.026909346 0.03353749 -0.057692595 0.03251734 -0.091466784 -0.08868758 -0.02369405 -0.0032011862
-0.09311657 0.075685985 -0.09130488 -0.01428952 -0.08129065 0.03741748 -0.094965726 -0.03831889
-0.054203305 0.013268401 0.03404226 0.07198049 -0.046778128 0.007976736 0.07296554 -0.0008030241
-0.06852703 -0.026559088 -0.06442522 -0.036259413 -0.008061064 -7.983777e-05 -0.046181127 -0.044430908
-0.095520005 -0.007354655 -0.0011747995 -0.09619391 -0.037497967 0.092045 0.09593844 0.042760283
0.025550647 -0.038670897 -0.08404397 -0.0064126463 -0.15862146 -0.054323204 0.054082498 0.051142737
0.0020234894 -0.09059532 0.00017869739 0.07310475 -0.05336453 0.026142355 -0.06305592 -0.08631165
-0.06453401 -0.01149698 -0.07934994 -0.05397878 0.019306254 -0.07239229 0.057325684 0.07140918
0.04143177 0.093522616 0.011299274 0.050383735 -0.059104506 -0.011722761 -0.018410271 0.082212605
-0.0131996395 0.09890396 0.021113971 0.02089332 -0.046504304 0.0005148222 0.08750892 -0.030126432
-0.06471318 -0.055077888 -0.037187167 0.097168736 -0.038064163 -0.04311603 0.0018442466 -0.0643657
0.06877113 0.027134677 -0.104639746 -0.024837563 0.0017346903 -0.08216813 0.06887136 0.051244173
-0.07176877 -0.02759758 0.07772578 0.026930286 0.028422473 0.039778166 0.029940179 0.09589664
0.0023615712 0.06701688 0.069006525 -0.01879245 -0.089210086 0.03821581 0.012263519 0.05767193
0.00014873693 0.019441422 -0.04699037 -0.09618506 -0.010946828 0.09864293 0.070851535 0.036518756
0.024752649 0.08092838 0.04991212 0.040035818 0.016372757 -0.10886232 -0.03709414 0.010122746
-0.083132304 0.05374798 0.049183905 -0.05658409 -0.029465413 -0.033929255 -0.0014976991 0.03374233
-0.07744827 -0.03717782 0.015215953 0.08148317 -0.15975241 -0.09059003 0.036261547 0.06600477
0.07406861 0.01747335 0.056439087 -0.026303321 -0.08152937 -0.08641231 -0.060244948 0.0539305
0.011499775 -0.006387629 0.009201838 0.006898996 -0.017297946 0.014355983 0.017493522 0.040848184
-0.051301483 -0.0016062472 0.08317969 0.09486374 0.03434245 -0.08509454 -0.0552887 -0.041709796
0.0561062 -0.07147464 -0.088285185 -0.069327 -0.038563434 -0.0636809 0.0009154002 -0.06499736
0.002307811 -0.019914774 0.0020986893 0.04173135 -0.059753206 0.0900473 0.09853331 0.07908782
0.049413837 0.093546614 0.043488197 0.018424666 0.08720117 -0.052715812 0.032792445 -0.09147911
-0.00095125707 0.084646374 0.06425533 -0.08673704 -0.0034238908 0.060444612 -0.070214495 -0.038239624
-0.041195046 -0.01211496 -0.023918513 -0.07601295 0.06756333 -0.038617637 -0.103717044 0.088624716
-0.009226647 -0.07812552 -0.03873859 -0.039602242 0.07072593 -0.068470135 -0.08408112 0.07508576
0.00712289 0.050672203 0.024502875 0.054909557 -0.10666409 0.06808337 0.09684423 0.041032236
0.0067385174 -0.10563305 -0.034795813 0.06876741 0.039758448 0.06795617 0.012505411 -0.013877845
0.050479613 0.014588081 0.070707075 -0.08890943 -0.046411045 -0.026904143 0.00094876473 0.08337411

conv2_2.bias f4 [64]
00000000: 7072 833d edf1 8bbd 8a35 8d3c da5f 173d
00000010: 94ed b53d 9d1e b53d 7aa1 d03d c9aa 14ba
00000020: 5b81 fa3d 7d5b 183d ccdb 0fbc 0853 99bd
00000030: 0770 6ebc a337 75bd c142 183d 6dbf c73d
00000040: b588 7fbd 94f3 cabd acf5 8a3d 663f c7bd
00000050: aaf0 af3d dcac 723d 2869 743d 6c88 d03d
00000060: 47b8 22bb 4862 7fbd 66fc ea3c 4de8 ecbc
00000070: b28e 3dbc ed67 50bc cae9 b53d c161 ea3a
00000080: f558 9fbc a8a5 183d fed0 8fbd 7265 403d
00000090: 9c6b 393d f20b 063d 559f 24bd 6f64 83bc
000000a0: 7ab5 e23d 7931 bcbd 15aa d1bd 7a07 843d
000000b0: 30f9 a7bd 8089 8c3b 625b 6fbd 82b9 ee3c
000000c0: 6b1f 7b3b 8156 933d 56ee 2cbd 00db b53d
000000d0: b519 40bd 1917 823d 590d edb8 b2af fbba
000000e0: 6b62 b33d 36bc b63d 9ae1 0e3d a19e cf3d
000000f0: 213b b73d ec57 df3d e5b0 b0ba 9436 0e3c
0.064183116 -0.06833253 0.017237443 0.036956646 0.08883205 0.0884373 0.10187049 -0.0005671201
0.12231704 0.037196625 -0.008780431 -0.0748654 -0.014553077 -0.059867512 0.037173036 0.097533084
-0.062386233 -0.0990974 0.067851394 -0.09728889 0.08590825 0.059246883 0.059670597 0.101822704
-0.0024829076 -0.062349588 0.028684806 -0.028919363 -0.011569666 -0.01272009 0.08882482 0.0017881916
-0.019451598 0.037267357 -0.07022284 0.046971746 0.04526864 0.032726236 -0.040191013 -0.016039101
0.1106977 -0.09189124 -0.10237519 0.064467385 -0.082018256 0.004288852 -0.05843676 0.029141191
0.0038318287 0.07194234 -0.042219482 0.088796616 -0.046899516 0.06352062 -0.00011303527 -0.0019202142
0.08759006 0.08922617 0.03488312 0.10137678 0.08946825 0.10905442 -0.0013480453 0.008680005

conv3.weight f4 [32, 1, 1]
00000000: 64b4 37bf 96e8 573f e4c2 ac3e 48b3 40bf
00000010: 68d7 1a3f e253 533f b84e 7cbe 102a 35bf
00000020: c4bc 8c3e 88ae 93be 620e 19bf 50ec a93e
00000030: b4cd ccbe 0079 38bd 20d7 ac3d 7459 853e
00000040: e8ef 27be d0e2 1bbf 9012 533e 3251 013f
00000050: c0bf 843d f252 7ebf 50a0 3b3f 68d6 43be
00000060: 9072 7a3e 4065 053e d615 5ebf c625 1a3f
00000070: 7ce1 d23e 1449 db3e 70e9 a6be 1e09 1dbf
-0.7175963 0.8433927 0.3374244 -0.7527356 0.60484934 0.8254987 -0.24639404 -0.7076731
0.27487767 -0.28844094 -0.5978757 0.33188105 -0.4000069 -0.04503727 0.08439469 0.2604481
-0.1640011 -0.60892963 0.2061255 0.5051452 0.06481886 -0.99345315 0.7329149 -0.19124758
0.24457765 0.13026905 -0.8675207 0.6021389 0.41187656 0.42829192 -0.32599974 -0.61342037

conv3.bias f4 [32]
00000000: a061 7d3f 205f 64bd ecb4 8fbe c8a0 b9be
00000010: 5a15 49bf 0c99 a5be a0b6 29bf 783c da3e
00000020: 0e2f 713f c006 9bbe 64fd 6bbf 004c d6bd
00000030: f0b4 953d 886a 14bf 5090 3d3f d0d4 a23d
00000040: 4816 b93e 28ae 73be 3859 ce3e 1400 443f
00000050: 80ec 113c f01e a03e a0db 063f b48b f43e
00000060: 9cf3 efbe e67f 413f fc6c 86be 1615 6ebf
00000070: 88fa 5e3e 8093 c63d 8e5e 6f3f 5095 363e
0.9897709 -0.05575478 -0.2806772 -0.3625548 -0.78548205 -0.32343328 -0.6629429 0.4262426
0.94212425 -0.30278587 -0.9218352 -0.104637146 0.07309902 -0.57975054 0.7404833 0.07950747
0.36149812 -0.23796904 0.40302444 0.7656262 0.008906484 0.31273603 0.5267887 0.47762835
-0.46865547 0.7558578 -0.26255023 -0.93000925 0.21775258 0.09696102 0.93503654 0.17830396

fc_channel3.weight f4 [32, 1]
00000000: 40b7 39bd 0472 16bf 7061 7cbe e6cd 08bf
00000010: 2e60 82be 121e 03bf d0c5 31bd 36be 52bf
00000020: 48c0 a9bd c8e3 1bbe e034 4abd 394d 37bf
00000030: 52de 57be d4e2 1ebf 34c8 4bbf 8c47 c9be
00000040: b004 ddbe 94eb 36bf 92b4 e3be c6eb dbbe
00000050: 8ccc dcbe ca27 56bf 665f 9bbe 40f3 c3bc
00000060: 3acc 40bf e05e c1bc 88dc 04bf 56ba edbe
00000070: 4634 6cbf 4098 c8bc 609d 7bbd f0e1 5dbd
-0.045340776 -0.58767724 -0.24646544 -0.53439176 -0.25464004 -0.5121776 -0.04340154 -0.8232149
-0.08288628 -0.1522361 -0.04936683 -0.7160221 -0.21080902 -0.6206486 -0.7960236 -0.39312398
-0.4316764 -0.71453214 -0.44473702 -0.42953318 -0.43124807 -0.83654463 -0.3034622 -0.023919702
-0.75311625 -0.02360481 -0.51899004 -0.46431226 -0.9226726 -0.024486661 -0.06142938 -0.05417055

fc_channel3.bias f4 [32]
00000000: 6ed6 d1be c4b4 17bf f6c2 3c3f 4c97 113f
00000010: 6c38 043f 186e 20bf 8e04 87bd bc2d 903e
00000020: 1dd3 3f3f e04f b0bd e0ad 15bf 2bed 953e
00000030: 0b4e 6a3e ccf5 fa3e 8001 e3bc 30ed a13d
00000040: 1a45 63bf 7fd3 69bf 27c8 5cbf 8c52 31bd
00000050: f563 e23e 107a d63d 3ea1 66bf 5ae1 0e3f
00000060: 1ad0 3abf de6c 3e3e 2bdc 463f cd9f f8be
00000070: 2481 0ebf 2c07 7dbf 2259 3abf 0de1 6d3f
-0.4098391 -0.592602 0.73734987 0.56871486 0.5164859 -0.6266799 -0.065926656 0.28159893
0.7493151 -0.08608985 -0.5846844 0.29282507 0.22881334 0.49015653 -0.027710676 0.07906568
-0.88777316 -0.9133834 -0.8624291 -0.043291613 0.44216886 0.104725 -0.90089786 0.5581261
-0.7297379 0.18596217 0.776797 -0.48559418 -0.556658 -0.9883907 -0.72792256 0.92921525

conv4_1.weight f4 [32, 1, 3]
00000000: 618e 06bf 339e 833e b80c a73e 4dc8 ffbe
00000010: 300e ffbd 7049 1b3f 0cbf acbe 7e09 133e
00000020: 83ee a63e 3a0b 0c3f 81e1 883e ad9b 29be
00000030: 4de6 95be cfac 8a3e 996a 0ebe f3a7 e7bd
00000040: 033c 183f c03d 22be 9bf7 b03e 635e 1d3d
00000050: 10c9 883e 4a0e 0dbf 5bf4 bc3d b496 d43d
00000060: e8a0 f03e 17e2 aabe 3c6e f23e 0752 1b3e
00000070: 9889 dd3e 9722 02bf b7f2 de3e 5a31 b0be
00000080: 5bcd 1cbf 3b0a df3d 2bcd 1abf 0ac6 0b3e
00000090: 5834 af3e bfa4 783d 3321 223f 4bf3 f23e
000000a0: 40be fb3e e15e 04bf 1e96 edbe 528e 33be
000000b0: 4106 373e dc99 7f3e 4a05 05bf 6fa3 013e
000000c0: c6f1 e23c 7565 c3be e964 50be 5bf1 c23e
000000d0: 8248 cfbe c860 393f a2fc b93c 1896 bf3e
000000e0: 2838 e2be 8695 84be 8068 fa3e 8c39 d33d
000000f0: 2186 3d3e 39e2 dc3e 0ee1 f73e bbf0 ad3e
00000100: b5af 073f 9f08 b23e 3024 bd3c e62d 5a3e
00000110: 47fc cbbe c592 243e 9838 3bbe 234f 373f
00000120: 7f42 5bbe 6eb2 16be 305d 7cbe d93d d0be
00000130: 9de8 b13e 67a5 933e 0488 ca3d 3458 1abe
00000140: 9216 173e e4e7 07bf b923 88bd 7e3b 9c3b
00000150: 22b2 e3be 53b2 99bd 6858 463e bf47 283e
00000160: 307a e93e e729 d03e e802 f83e 26f9 c0be
00000170: 7524 8cbd 3cd2 be3d bd9d 05bf 1ed9 8e3d
-0.52561 0.25706634 0.3262689 -0.49957505 -0.12453878 0.6065893 -0.33739507 0.1435909
0.32603845 0.5470463 0.26734546 -0.16563292 -0.29277268 0.27084967 -0.13907851 -0.11311331
0.5946657 -0.15843868 0.34563908 0.038420092 0.267159 -0.5509993 0.092262946 0.10380307
0.46997762 -0.33375618 0.47349727 0.1516801 0.43269038 -0.5083403 0.43544552 -0.34412652
-0.6125085 0.10890623 -0.6046931 0.13649765 0.34219623 0.06070399 0.6333191 0.47451243
0.49168587 -0.51707274 -0.46403593 -0.1753476 0.1787348 0.24961036 -0.51961195 0.12660001
0.027703177 -0.38163343 -0.20350994 0.38074765 -0.40485007 0.724133 0.022703473 0.374192
-0.4418347 -0.25895327 0.48907852 0.103137106 0.18508197 0.43141344 0.4841389 0.33972725
0.5300248 0.34772202 0.023088545 0.21306571 -0.3984091 0.16071613 -0.18283308 0.7160513
-0.21412085 -0.14716503 -0.24644923 -0.40672186 0.34747782 0.2883713 0.09889224 -0.1507271
0.14754704 -0.5308821 -0.066474386 0.004767834 -0.44471842 -0.07504716 0.19369662 0.16433619
0.45601034 0.4065697 0.48439717 -0.37690085 -0.06842891 0.09317443 -0.52193815 0.069750056

conv4_1.bias f4 [32]
00000000: 7991 703e aa7f f7bb 3a4b d7bc 1c6f ad3e
00000010: 67e9 183f 6ca4 ab3e 427f 053f 47a4 423e
00000020: 167a 543d 2d0a 6fbe c0c2 2c3e 2426 0d3d
00000030: c38e 9e3e 14d5 033f 8bfc ebbe 433c e43e
00000040: 5deb 143f a900 0a3f 20d2 073f f13c 0fbf
00000050: 87ff ad3e 4ce3 0dbf 1299 12be b3ec 2dbe
00000060: 126e 953e b9b7 68be 6c2b 833d e6e9 b4be
00000070: 18ef e0bd 12a8 bbbd 1f8b 0c3f 5903 ed3e
0.23492993 -0.0075530605 -0.026280988 0.33873832 0.59731144 0.3352388 0.52147305 0.1900798
0.051874243 -0.23343726 0.16871166 0.0344602 0.30968294 0.51497006 -0.46091112 0.44577226
0.58171636 0.5390726 0.53055 -0.55952364 0.33984014 -0.5542495 -0.14316204 -0.16984825
0.2918554 -0.22726335 0.064047664 -0.353347 -0.109831035 -0.09162916 0.5489978 0.46291617

conv4_2.weight f4 [64, 32, 3]
00000000: 8b5b 2c3d 7df5 95bd 652a b5bd bf82 70bd
00000010: 0640 65bc 6038 14bd 541d f4bc f641 d8bd
00000020: 3b14 8bbd 3257 24bd b585 ccbd d1bd bdbd
00000030: 534b a73d 9b51 a7bd 7588 98bd ddb4 8f3d
00000040: 5513 333d fb16 52bd 24ac 613c a075 a63d
00000050: db5f fe3b ebd8 d53d 773f 303d 761d d03c
00000060: ae04 5d3d 0a2d 2ebd d9e8 413d 49a0 723c
00000070: 2c15 853d e177 d3bd 20f2 a7bc 477b cb3c
00000080: 18fa b23d 5bf6 e93c 62c6 39bd 1d67 713d
00000090: 0ad0 c33c 87e6 813d d02b 93bd 8cfe d33b
000000a0: 1302 7dbd bf11 ba3d fe3e c63d 80ac 4a3c
000000b0: c9e3 ec3c 206e 84bd f066 1bbc 24b6 9c3b
000000c0: 4626 1dbc 43fc 8bbd 6969 b23d a8a0 cd3d
000000d0: 2cfd f4bc 01a1 a4bc 554e 883d 59ee 8e3d
000000e0: 31e2 a93d d031 403d 55a3 c4bd a062 793d
000000f0: 1e03 a93c b679 cabc 33e9 8cbd d1de 253d
00000100: db2f ae3b cb32 83bd 61fd 973a 22e2 5dbd
00000110: f986 183d 3136 e2bc 09dc bb3d 3c6a 54bd
00000120: 1a19 41bc f1d1 763c 9735 403d 4d78 8cbc
00000130: 994f 8bbc 8242 933d 1127 963d 467a 203d
00000140: 9262 77bd d1b9 963c 4df9 503d 030a b23d
00000150: ca42 a73c 6a4b c9bd 200f abbd 5b35 a9bc
00000160: e51d 6c3c fb3a 85bd 5ac9 3c3d 28f2 afbd
00000170: eff6 30bd c722 633d e69d 31bd e76d 253d
00000180: 2ff1 e03c e984 cc3d c72d 353d 6644 7fbd
00000190: 5e93 3b3d 02a1 74bd f587 763d 7b11 f8bb
000001a0: 4eda c93d 5137 76bd ebd0 6f3d 72d0 473d
000001b0: 0a46 d0bd 7eca a43d 278a ab3d aab9 bc3b
000001c0: 004a 163d 3262 853d 32b3 39bd 05e0 76bd
000001d0: 43b6 b03d ef5e 96bc f412 5c3d b022 abbd
000001e0: 1acd 80bd 2a21 f23c 8253 c5bd 5ac6 92bd
000001f0: 1ee7 7d3c 6ae3 7e3d f69f 77bd d4aa 34bd
00000200: 9a81 993d f211 93bc 7df2 ca3d cd68 bebd
00000210: d57a 7fbc 7fd4 b33c 6646 9fbd 2af0 c2bc
00000220: d903 a63d 93ad 8c3d ee3f 9abd dc45 b63d
00000230: e8f4 523d cabb cbbd 55db 9d3d 7a43 aebb
00000240: 0e2a 9ebd cef9 5abd 1c47 bebd 886a ad3c
00000250: 4ff6 7fbd ea59 25bd 5f99 9dbd 4f34 2a3d
00000260: 9202 423d a474 25bc 349e af3c ecaf dbbb
00000270: 2a9b c1bd a6cf c63d a77b 98bd b530 593d
00000280: 977c bbbd 4089 6dbd c0a3 be3d 96ad a43d
00000290: f790 1cbd ceb7 223d 4bed b53c a481 c1bd
000002a0: cc5b adbd 457b 9abd 483a b83c effc 9a3d
000002b0: 82e4 71bd 4760 b53d 7faa 2a3d 9106 063d
000002c0: f39f a5bd 8d98 db3c 86ea c7bd 6530 8bbd
000002d0: 43a3 79bd 62b7 39bd e9b0 98bd ecde cfbd
000002e0: 9767 973d cab3 85bd 521f 193b c2d4 413c
000002f0: e9bb c6bd 77a5 5bbc ecfb 4dbd 0518 6e3d
00000300: e1df 773d a3b5 9f3d 3163 6fbd 283e 0a3c
00000310: 2f1b df3c 6222 7fbd f8b8 963d acfd 9dbd
00000320: 0347 cabd f385 c4bd 4af2 adbd cca4 e3bc
00000330: 4946 5fbd 673e 2cbc 89d4 423d a281 083d
00000340: 85bd e0bc c259 4e3d d644 993d a41b 3bbd
00000350: 883f 5dbd 5d17 193d 6f68 a6bd 678b b33d
00000360: 8721 c3bd b84a a93d 3bc1 8abd cc36 933d
00000370: 06df 88bd 56af ba3d e516 843a 639c dabd
00000380: 00d8 86bb 93da 0a3c ba91 803c 9514 c6bd
00000390: d3ea 24bd 7245 1dbd b40e 50bd 62cd af3d
000003a0: 4901 8e3d 9aad 7abd 2274 2a3d 3ce0 903b
000003b0: ffce ab3d 746e 93bd e89c 813c 5c29 78bb
000003c0: 350a 92bd de96 273d f10a 0abc 30a1 66bd
000003d0: 8aea 7d3c aa7c b73d 6e53 afbd 3538 8d3d
000003e0: 6da1 7cbd 5f5a a43d fc6b ba3d 618c b1bb
000003f0: 7f34 4f3b 2c0e 48bd 8cdb c4bd aaee cbbd
0.04207949 -0.07322214 -0.08845977 -0.05871844 -0.013992315 -0.036186576 -0.029799141 -0.10559456
-0.06790968 -0.04012222 -0.0998644 -0.0926472 0.08168664 -0.08169862 -0.07447902 0.07016919
0.04371961 -0.051291447 0.013773952 0.08127904 0.0077628917 0.104417644 0.043029275 0.025404673
0.05395954 -0.04252342 0.0473412 0.014808723 0.06498179 -0.103255995 -0.020501196 0.024839057
0.08739108 0.028559854 -0.04535521 0.058936227 0.023902912 0.06342798 -0.07186091 0.0064695533
-0.061769556 0.09085416 0.096799836 0.012370229 0.02891721 -0.06466317 -0.009484991 0.004782455
-0.009591645 -0.068352245 0.08711512 0.100404084 -0.029905878 -0.020096304 0.06655566 0.06979055
0.08295096 0.046922505 -0.096014656 0.06088507 0.02063137 -0.02471624 -0.06880417 0.040495697
0.0053157634 -0.06406172 0.0011595899 -0.054170735 0.037238095 -0.027613731 0.09172828 -0.051859125
-0.01178577 0.015064702 0.046926107 -0.017147208 -0.017005729 0.0719042 0.0733167 0.03917911
-0.06039674 0.018399151 0.051019 0.08693316 0.02041759 -0.09828837 -0.08352494 -0.020655325
0.014411424 -0.0650539 0.04609046 -0.085911095 -0.043204244 0.055453088 -0.043363474 0.040388014
0.027458755 0.09986288 0.04423311 -0.06232109 0.045794837 -0.05972386 0.060188252 -0.007570443
0.098560914 -0.060111348 0.05854885 0.048782773 -0.10169609 0.08046435 0.0837596 0.0057594376
0.036691666 0.0651287 -0.04533691 -0.060272235 0.08628514 -0.018355815 0.053729013 -0.083562255
-0.0628912 0.02955683 -0.096350685 -0.07166739 0.015496997 0.062228598 -0.060455285 -0.044108227
0.07495423 -0.017952893 0.09909532 -0.09297333 -0.01559325 0.021951912 -0.07777099 -0.02379616
0.08106203 0.06869044 -0.07531725 0.08900043 0.051503092 -0.09947927 0.0770785 -0.0053181024
-0.07722865 -0.05346089 -0.09290907 0.021168962 -0.062490758 -0.04036895 -0.07695269 0.04155379
0.047365732 -0.01009861 0.021437742 -0.006704321 -0.09453423 0.097075745 -0.0744546 0.053024966
-0.09154623 -0.05799222 0.093085766 0.080409214 -0.038224187 0.03972607 0.022207877 -0.09448555
-0.084647745 -0.07543043 0.022488728 0.075677745 -0.059055813 0.08856254 0.041666504 0.032721106
-0.080871485 0.02680614 -0.09761529 -0.0679634 -0.060946714 -0.045340903 -0.07455618 -0.10149941
0.07392805 -0.06528433 0.0023364616 0.011830511 -0.0970381 -0.013406149 -0.05028908 0.058128376
0.060516242 0.07798316 -0.058444206 0.008437671 0.027234642 -0.06228865 0.07359499 -0.077144
-0.09876826 -0.09595861 -0.084934786 -0.027788542 -0.05451039 -0.010512925 0.04756597 0.033326752
-0.02743412 0.05037857 0.074838325 -0.045680657 -0.054015666 0.037375797 -0.08125388 0.08766823
-0.09527879 0.082662046 -0.06775137 0.07188186 -0.06683163 0.09115474 0.0010077624 -0.1067436
-0.0041151047 0.008474964 0.015694488 -0.096718945 -0.04026301 -0.038396306 -0.050795272 0.085840955
0.06933839 -0.061200716 0.04161466 0.004421262 0.08389091 -0.07198802 0.015821889 -0.003786645
-0.07130853 0.040915363 -0.00842546 -0.056306064 0.015497813 0.08959325 -0.08560835 0.06895486
-0.061677385 0.080250494 0.09102628 -0.005418346 0.0031616983 -0.04884164 -0.09612188 -0.09957631

conv4_2.bias f4 [64]
00000000: 3e52 143d f531 1a3d faac 70bd 17d3 813d
00000010: 7051 86bd fda7 513c 9951 d63c d809 7d3d
00000020: 43dc bbbd 44a2 863d 1620 5f3d 178f b0bd
00000030: e630 9ebc 2ee9 233d e75a c1bd c1e0 76bd
00000040: e0fd b0bd 027a fcbc 2d9f 58bc cd86 d63c
00000050: 39cc d03d 5037 6bbd 40bc c33c 0986 793b
00000060: 2a98 4dbd 1700 ad3d 42bf 01bd 8591 123d
00000070: ff20 5cbd 2fbe 60bd 405c 063c 1572 7fbd
00000080: 4000 66bd 8819 a9bc 619e b83a 64a2 12bd
00000090: 6e15 86bd 52ea ce3d 94d6 d43d e452 dfbd
000000a0: dddf 4ebd c297 743d e93d 14bd 0c5f 573d
000000b0: c62a abbc 9840 733c e0df aebd 75c4 67bd
000000c0: 93d7 bf3d 7566 3fbd 26ad a13d 5c5a c8bc
000000d0: 5dbf bf3c 62d3 ba3b dcf0 9dbd 727d afbd
000000e0: ff75 8cbd a6a4 a23d 79f3 4e3d d0fb a9bc
000000f0: a79b 0d3c b68a e13d 0a14 35bd fa32 0b3e
0.036211245 0.0376453 -0.058758713 0.0633909 -0.06558502 0.012796399 0.026161956 0.061776966
-0.09172871 0.065739185 0.05447396 -0.08621042 -0.019310426 0.0400173 -0.09441166 -0.060272936
-0.08642173 -0.030819897 -0.013221544 0.026187325 0.101952024 -0.057425797 0.023893476 0.0038074276
-0.050193943 0.08447283 -0.03167654 0.03578331 -0.053742405 -0.054868873 0.008200705 -0.062364656
-0.056152582 -0.020642057 0.0014085287 -0.0357994 -0.06547056 0.10103287 0.1039249 -0.10904482
-0.05050646 0.05971504 -0.036191855 0.05258088 -0.02089442 0.014846943 -0.085387945 -0.05658384
0.093672894 -0.04672857 0.078943536 -0.02445715 0.023406679 0.0057014683 -0.07711956 -0.08568849
-0.068584435 0.079415604 0.050525162 -0.020749956 0.008643067 0.11012785 -0.044208564 0.13593665

fc1.weight f4 [120, 224]
00000000: d59e 49bc ebb9 503d 8ce0 ecbc ccb2 813d
00000010: 530f 943c d9a9 02bd df23 7dbd c59e 113d
00000020: 3e89 173d a1be 343d 305b 2abd ab29 82bc
00000030: 1ef3 3fbd c1d3 7c3b 8cb1 643b a7bc f8bc
00000040: 210c 0c3b ebb2 1abd b3fe 323d 7c9e 57bc
00000050: b3b1 f4ba b9a1 0cbb 149f 37bd 2251 2abd
00000060: f3a5 81bd aa7b 5dbb 75f0 933c 46c4 1d3d
00000070: 9153 5dbd d96e 76bd 3d72 c5bc 0914 b2bc
00000080: bf79 4b3c 03c6 2b3d 0608 243d 257a c83c
00000090: 91a4 513d 4d9f d73c 86a3 1b3d 03c6 ba3b
000000a0: 8dc6 6cbd 788f cebc 5563 673d a2e0 91bc
000000b0: b797 65bd bc93 683d 4f12 20bd 8ce0 a5bc
000000c0: e3c5 053d 022e ffbb fca6 a13c 60e1 ae3c
000000d0: 7b85 88bc bb42 d1bc ff3c 11bd d10e 763d
000000e0: cf6d 20bd 4579 5cbc 0dcd 2c3d 70df 42bd
000000f0: a0ad 3a3d 9c51 42bd 4a1a 66bd 8895 1f3d
00000100: b3de 7dbd 1359 62bd d8a8 2d3d b531 0ebd
00000110: 4a94 863d 4a55 30bd 9a8b 1b3d a3bb 18bd
00000120: 3c49 883c e43e 23bd 567e 38bd ec60 003c
00000130: 1cf2 9cbd fe37 c5bb e653 c63c 24ed 2cbd
00000140: 0652 993c 62ac b1bc b1de 253d f359 4ebb
00000150: ba11 a2bb 3a71 aa3c 3497 513c 076c 53bc
00000160: 147a 86bd 08a5 4bbd af98 ecbc c9d7 77bd
00000170: 36ed 74bd f422 8fbd f609 ccbb 3463 383d
00000180: d29c 84bd 4fba 513d 7754 de3c f0a2 11bd
00000190: 0339 32bd e3f2 9abc c94d ab3b 0c8d 513d
000001a0: 56f1 523d 420b 9bbc ee73 81bd ef29 4cbd
000001b0: 0bbf 54bc 740a 5fbd b172 a9bb ebb6 3ebd
000001c0: fc13 f93c fd26 f53c d363 6aba f17b 70bc
000001d0: 7649 8cbc e1c4 47bd 49a5 8abb 25b6 13bd
000001e0: b04d 25bc e1c0 19bd a8b6 d63c 0d24 70bc
000001f0: 6985 8abb 4487 abbc a08c c5bc fdff 2fbd
00000200: e257 a2bd bb27 47bd 14f6 333d f751 813d
00000210: 3669 80bd ed63 10be bbc5 cebd e6b9 0dbd
00000220: 6eb4 10be 503d cc3b b018 1f3b adb6 a1bd
00000230: e6aa 9f3b a2fe 3bbd 341a 113d 866f 6b3d
00000240: 6013 67bb 4cf5 66bd f6ce 10be 1c02 71bd
00000250: a2a9 2fbd fba5 01bd c4f2 72bd fad8 14bc
00000260: 4b0c 61bd 128a 13be 0ad3 38be 0e79 44be
00000270: fa0d d8bc 18ee 123c 0ddb 3dbd d01e 3fbc
00000280: fa4e 83bc 6f7c 10ba 287e 19bd 5d65 e0bb
00000290: f566 02bd daf6 d3bb c6dc 6fbd 43d1 cdbc
000002a0: d495 a23c 22af 7c3d b2ba ad3a 3028 0c3d
000002b0: fcdf dd3c ce02 80bc 287c 63bd 648f 823d
000002c0: c369 30bc bbb4 ca3c a504 053d 8b76 4a3c
000002d0: 6cd3 1f3b 6de6 eebc 5bd9 863b 4626 02bc
000002e0: 93f5 463c 17f8 6539 2243 233d d2ec 91bc
000002f0: eed5 33bd 8265 eabc 1cad 493c 6a5b 223c
00000300: bd78 113d c4e0 023d 6613 c4bc e9d2 a7bb
00000310: 0a4b 8e3c 20cc 2ebd 121e 603d 1064 de3c
00000320: 1c7a 5f3d ee89 89bd ffea 253d 4c1a 1fbc
00000330: 06d5 6cbd bcfb 033b 70d9 043c b6bd 533d
00000340: 194b 7a3c 09ec 63bd 6b71 a5bc 2a52 d5bc
00000350: 6f3f 1d3a 3eab c63c dc98 dd3c 1143 c03c
00000360: 2655 88bc 4d2d 32bd 2c05 29bd da8c 0c3d
00000370: d817 1e3d 4436 033d 9fb4 0bbc 9fb9 d9bc
00000380: 1dcb 61bc ebb1 dabc 40ac 33bd 3ab5 1abd
00000390: 18c8 4ebc 52a0 a83c 8da1 f23a dece 333b
000003a0: 0970 babc 96dd 233d dea8 4f3d 0fd2 a0bc
000003b0: 4c3d 883b d370 04bd 4a5c 66bd 4bc8 21bc
000003c0: c563 5fbd 9a8d 76bd 5f68 a53c 87df 82bd
000003d0: 8a46 04bd bcd2 28bd 282f 9c3c dc71 513c
000003e0: 3409 94bc ee7f d5bc b834 30bd ab85 473c
000003f0: 874d 553c d266 bebc deaa 86bc 1863 8abc
-0.012305935 0.050958555 -0.028915666 0.06332931 0.018073713 -0.03190026 -0.061801787 0.035551805
0.03699612 0.04412711 -0.04159087 -0.01588901 -0.046862714 0.0038578364 0.0034895865 -0.030363394
0.0021369534 -0.037768286 0.04369993 -0.013160344 -0.0018668681 -0.00214587 -0.044829443 -0.04158128
-0.063304804 -0.0033795633 0.018058995 0.03851726 -0.054034773 -0.060164306 -0.024102325 -0.02173807
0.012419163 0.041936886 0.040046714 0.024472306 0.051182333 0.026321078 0.037997745 0.0056998744
-0.05780654 -0.025214896 0.056491215 -0.017807309 -0.05605289 0.056781515 -0.03907996 -0.020248674
0.032659423 -0.007787467 0.019732945 0.021347702 -0.016665211 -0.025544515 -0.03545856 0.060072724
-0.03916722 -0.013456647 0.04218774 -0.047576368 0.045575738 -0.04744111 -0.056177415 0.038960963
-0.06197996 -0.05526073 0.04239735 -0.034715373 0.06571253 -0.043050088 0.03797493 -0.03728832
0.016636483 -0.0398549 -0.04504236 0.007835608 -0.07663366 -0.0060186377 0.024209928 -0.042218342
0.01871587 -0.021688644 0.04049558 -0.003148672 -0.004945961 0.020805944 0.012792397 -0.012904174
-0.06566253 -0.049717933 -0.028881399 -0.060508523 -0.059796534 -0.06989089 -0.0062267734 0.045016482
-0.064752236 0.05120307 0.027139885 -0.03555578 -0.0435114 -0.018914646 0.0052277786 0.051159903
0.051499687 -0.018926267 -0.0632094 -0.04984468 -0.012985001 -0.05445333 -0.005171143 -0.046561163
0.030405037 0.029925818 -0.00089412666 -0.014677987 -0.017124873 -0.048771743 -0.0042311293 -0.03606238
-0.010089323 -0.03753746 0.026210144 -0.014657033 -0.0042273295 -0.020938523 -0.024114907 -0.04296874
-0.079269186 -0.048621874 0.04393585 0.06314462 -0.062700674 -0.14100619 -0.10096308 -0.034601115
-0.14131328 0.006232895 0.002427619 -0.07896171 0.0048726676 -0.045897134 0.03542538 0.057479404
-0.003525935 -0.056386277 -0.1414145 -0.058839902 -0.042886384 -0.031652432 -0.05931355 -0.009084934
-0.054943364 -0.14408138 -0.18049255 -0.19186804 -0.026373852 0.008967899 -0.04635148 -0.011665061
-0.01602887 -0.0005511706 -0.037473828 -0.006848021 -0.03183647 -0.006468636 -0.058560155 -0.025124198
0.019846834 0.061690457 0.0013254492 0.034218013 0.027084343 -0.015626337 -0.055538327 0.06375006
-0.010767403 0.024744382 0.032475132 0.012357364 0.0024387492 -0.02916261 0.0041152663 -0.007943695
0.01214351 0.00021931563 0.039858945 -0.01781312 -0.04390519 -0.028612856 0.012309339 0.00990949
0.035515536 0.031952634 -0.023935031 -0.005121578 0.017369766 -0.042675138 0.054716177 0.027147323
0.054559812 -0.06715761 0.040507313 -0.0097108595 -0.057820342 0.002013906 0.008108482 0.051694594
0.015276694 -0.055645023 -0.020195683 -0.026040155 0.0005998527 0.024251577 0.027050428 0.02346948
-0.016642164 -0.043500233 -0.041264698 0.034314014 0.038596958 0.032034174 -0.00852695 -0.026577769
-0.013781336 -0.026696166 -0.043865442 -0.037770487 -0.012620948 0.02058426 0.0018511281 0.0027436535
-0.0227585 0.040006243 0.050698154 -0.019631414 0.004157698 -0.03233416 -0.056240357 -0.009874414
-0.054538507 -0.060193636 0.02019137 -0.06390291 -0.032293834 -0.041216597 0.019065455 0.012783494
-0.018070795 -0.026061978 -0.043019027 0.012177865 0.013018972 -0.023242388 -0.016438898 -0.016892955

fc1.bias f4 [120]
00000000: f196 8abc de4f 033d 602e dcbb 3889 113b
00000010: 5970 173d 4ca0 70bc ef59 b13c 7afe 3d3d
00000020: ddb8 3a3c acea d9bc 7ac9 8ebc 1c99 01bd
00000030: 1b0e a93b dddb 43bd 7907 1dbd 2f1b 0f3d
00000040: 7ae0 ffbc 2da4 793c f45c 21bc 7199 fdbc
00000050: e9a8 543d d6cf 78bd 8a04 76bd 08d8 003b
00000060: 5518 a33c f9e5 5e3d 19a8 013d c147 d53c
00000070: 80c4 453d b192 95bc 4144 a33c 531c 8fbc
00000080: 74df 4e3d 723b 72bd 4c02 95bb 51b9 6f3a
00000090: 3c55 44bd 0bab 473c ffc5 ba3c 52d9 d6bc
000000a0: 221f 1e3d a59f f23c fd3a 28bd 64df 85bb
000000b0: 8b3e 713d 8e7f 4e3d 8079 3abd 4e44 663c
000000c0: 8f22 913c 2ce1 cc3c ab5c ab3c 36a5 b33c
000000d0: b078 43bd a529 90bd c78d 253d 315f 83bd
000000e0: b0d0 37bd 4160 32bd 3a82 3d3d 81df 343d
000000f0: 30a4 6b3d f570 8c3c 0e1e bfbc c644 8f3b
00000100: fc81 523d e034 7b3d 90fe d3bc 59e3 4e3d
00000110: 31ea 413d b0ee 1dbd 7c84 4fbd d23e b53c
00000120: 6ded 0abc 06f4 12bd d7a5 a03c ff7d c93c
00000130: 5cc9 5d3d 57d9 0abd 59f3 72bd 34a9 aabc
00000140: d69f 873c fbfe 4b3d 4641 973c c88d 303c
00000150: 041f 15bb 8d0e c7bb e7f4 8abd 7280 85bd
00000160: 7904 3ebd a93c 23bc 4bbe 523d 9535 86bb
00000170: c69d 133d c805 b43b 011f 9dbc dd52 66bc
00000180: 4672 1d3d 4373 ed3c daa9 c03c 75ed 863c
00000190: d76a 733d 33de 073c 39c5 7abd 95de 123d
000001a0: 923e afbc f0c3 44bd c39b 57bd 4c13 813d
000001b0: 3394 263d 5822 3c3c 9ce1 473b 9d48 dd3b
000001c0: 571a f3bb 931f 5e3d f07e 373d e9d0 823d
000001d0: abdd 313d 318d 76bc b70a f3bc 3762 113d
-0.016917678 0.03205859 -0.0067193955 0.0022207033 0.036972377 -0.014686655 0.021649329 0.046385266
0.011396614 -0.026601158 -0.017430056 -0.031640157 0.005159152 -0.0478171 -0.038337205 0.034938034
-0.031234968 0.015236896 -0.009848822 -0.030956956 0.051918898 -0.060745083 -0.060062923 0.0019660015
0.019909063 0.054418538 0.03165445 0.026035191 0.0482831 -0.018258424 0.019930007 -0.01746956
0.05050607 -0.059138723 -0.004547393 0.0009144741 -0.04793285 0.012186776 0.02279949 -0.026226673
0.03860391 0.02961714 -0.04107188 -0.004085468 0.058897536 0.050414614 -0.045526028 0.014054371
0.017716674 0.025009714 0.020918211 0.021929365 -0.04772252 -0.07039193 0.040418413 -0.06414641
-0.044876754 -0.043548826 0.04626677 0.044158462 0.05752963 0.017143706 -0.02332976 0.004372212
0.051393494 0.061329722 -0.02587822 0.050509784 0.047342483 -0.03855771 -0.050663456 0.022124682
-0.008479458 -0.03587725 0.019610329 0.024596212 0.05414711 -0.033898678 -0.059314106 -0.020832635
0.016555708 0.049803715 0.018463742 0.010775991 -0.0022754082 -0.0060747326 -0.06784993 -0.065186396
-0.046390984 -0.009963193 0.05145101 -0.004095743 0.036039136 0.0054938532 -0.019179823 -0.014057842
0.038439058 0.028985625 0.023518492 0.01647065 0.059428062 0.0082927225 -0.061223242 0.035856802
-0.02139214 -0.048038423 -0.05263878 0.06302509 0.040668678 0.011482798 0.0030499464 0.006753041
-0.0074189114 0.05422933 0.04479879 0.06387503 0.04342429 -0.015048311 -0.029668195 0.035494056
